Neural Network Tools for STM32AI v1.6.0 (STM.ai v7.3.0-RC5)
Created date          : 2022-11-29 15:48:21
Parameters            : generate -m C:/Closs/Work/AI/VISION/External_Model_Zoo/external_zoo_poc/image_classification/models/mobilenetv2/ST_pretrainedmodel_public_dataset/flowers/mobilenet_v2_0.35_128/mobilenet_v2_0.35_128_input_int8.tflite --output C:\Closs\Work\AI\VISION\External_Model_Zoo\external_zoo_poc\image_classification\scripts\deployment\outputs\2022_11_29_15_47_50 --workspace C:\Closs\Work\AI\VISION\External_Model_Zoo\external_zoo_poc\image_classification\scripts\deployment\outputs\2022_11_29_15_47_50 --series stm32h7 --dll --allocate-inputs --allocate-outputs --quiet -O balanced

Exec/report summary (generate)
-----------------------------------------------------------------------------------------------------------------------------------------------------------------------------------------------------------------------------------
model file         :   C:\Closs\Work\AI\VISION\External_Model_Zoo\external_zoo_poc\image_classification\models\mobilenetv2\ST_pretrainedmodel_public_dataset\flowers\mobilenet_v2_0.35_128\mobilenet_v2_0.35_128_input_int8.tflite
type               :   tflite                                                                                                                                                                                                     
c_name             :   network                                                                                                                                                                                                    
compression        :   lossless                                                                                                                                                                                                   
options            :   allocate-inputs, allocate-outputs                                                                                                                                                                          
optimization       :   balanced                                                                                                                                                                                                   
target/series      :   stm32h7                                                                                                                                                                                                    
workspace dir      :   C:\Closs\Work\AI\VISION\External_Model_Zoo\external_zoo_poc\image_classification\scripts\deployment\outputs\2022_11_29_15_47_50                                                                            
output dir         :   C:\Closs\Work\AI\VISION\External_Model_Zoo\external_zoo_poc\image_classification\scripts\deployment\outputs\2022_11_29_15_47_50                                                                            
model_fmt          :   ss/sa per-channel                                                                                                                                                                                          
model_name         :   mobilenet_v2_0_35_128_input_int8                                                                                                                                                                           
model_hash         :   ca8589430959a05321e04bd980a7dac8                                                                                                                                                                           
params #           :   395,493 items (406.86 KiB)                                                                                                                                                                                 
-----------------------------------------------------------------------------------------------------------------------------------------------------------------------------------------------------------------------------------
input 1/1          :   'serving_default_input_10' (domain:activations/**default**)                                                                                                                                                
                   :   49152 items, 48.00 KiB, ai_i8, s=0.00784314, zp=-1, (1,128,128,3)                                                                                                                                          
output 1/1         :   'nl_68' (domain:activations/**default**)                                                                                                                                                                   
                   :   5 items, 20 B, ai_float, float, (1,1,1,5)                                                                                                                                                                  
macc               :   19,001,562                                                                                                                                                                                                 
weights (ro)       :   416,628 B (406.86 KiB) (1 segment) / -1,165,344(-73.7%) vs float model                                                                                                                                     
activations (rw)   :   207,920 B (203.05 KiB) (1 segment) *                                                                                                                                                                       
ram (total)        :   207,920 B (203.05 KiB) = 207,920 + 0 + 0                                                                                                                                                                   
-----------------------------------------------------------------------------------------------------------------------------------------------------------------------------------------------------------------------------------
(*) 'input'/'output' buffers can be used from the activations buffer

Model name - mobilenet_v2_0_35_128_input_int8 ['serving_default_input_10'] ['nl_68']
--------------------------------------------------------------------------------------------------------------------------------------------------------------------------------------------------------------
id   layer (type,original)                        oshape                  param/size        macc        connected to               |   c_size          c_macc                c_type                          
--------------------------------------------------------------------------------------------------------------------------------------------------------------------------------------------------------------
0    serving_default_input_10 (Input, )           [b:1,h:128,w:128,c:3]                                                            |   +496(+100.0%)   +1,769,488(+100.0%)   optimized_conv2d_oi8[0]         
     conv2d_0 (Conv2D, CONV_2D)                   [b:1,h:64,w:64,c:16]    448/496           1,769,488   serving_default_input_10   |   -496(-100.0%)   -1,769,488(-100.0%)  
     nl_0_nl (Nonlinearity, CONV_2D)              [b:1,h:64,w:64,c:16]                      65,536      conv2d_0                   |                   -65,536(-100.0%)     
--------------------------------------------------------------------------------------------------------------------------------------------------------------------------------------------------------------
1    conv2d_1 (Conv2D, DEPTHWISE_CONV_2D)         [b:1,h:64,w:64,c:16]    160/208           589,840     nl_0_nl                    |                                         pad_oi8/conv2d_oi8[1, 2]        
     nl_1_nl (Nonlinearity, DEPTHWISE_CONV_2D)    [b:1,h:64,w:64,c:16]                      65,536      conv2d_1                   |                   -65,536(-100.0%)     
--------------------------------------------------------------------------------------------------------------------------------------------------------------------------------------------------------------
2    conv2d_2 (Conv2D, CONV_2D)                   [b:1,h:64,w:64,c:8]     136/160           524,296     nl_1_nl                    |                                         conv2d_oi8[3]                   
--------------------------------------------------------------------------------------------------------------------------------------------------------------------------------------------------------------
3    conv2d_3 (Conv2D, CONV_2D)                   [b:1,h:64,w:64,c:48]    432/576           1,572,912   conv2d_2                   |                                         conv2d_oi8[4]                   
     nl_3_nl (Nonlinearity, CONV_2D)              [b:1,h:64,w:64,c:48]                      196,608     conv2d_3                   |                   -196,608(-100.0%)    
--------------------------------------------------------------------------------------------------------------------------------------------------------------------------------------------------------------
4    pad_4 (Pad, PAD)                             [b:1,h:65,w:65,c:48]                                  nl_3_nl                    |                                         pad_oi8[5]                      
--------------------------------------------------------------------------------------------------------------------------------------------------------------------------------------------------------------
5    conv2d_5 (Conv2D, DEPTHWISE_CONV_2D)         [b:1,h:32,w:32,c:48]    480/624           442,416     pad_4                      |                                         conv2d_oi8[6]                   
     nl_5_nl (Nonlinearity, DEPTHWISE_CONV_2D)    [b:1,h:32,w:32,c:48]                      49,152      conv2d_5                   |                   -49,152(-100.0%)     
--------------------------------------------------------------------------------------------------------------------------------------------------------------------------------------------------------------
6    conv2d_6 (Conv2D, CONV_2D)                   [b:1,h:32,w:32,c:8]     392/416           393,224     nl_5_nl                    |                                         conv2d_oi8[7]                   
--------------------------------------------------------------------------------------------------------------------------------------------------------------------------------------------------------------
7    conv2d_7 (Conv2D, CONV_2D)                   [b:1,h:32,w:32,c:48]    432/576           393,264     conv2d_6                   |                                         conv2d_oi8[8]                   
     nl_7_nl (Nonlinearity, CONV_2D)              [b:1,h:32,w:32,c:48]                      49,152      conv2d_7                   |                   -49,152(-100.0%)     
--------------------------------------------------------------------------------------------------------------------------------------------------------------------------------------------------------------
8    conv2d_8 (Conv2D, DEPTHWISE_CONV_2D)         [b:1,h:32,w:32,c:48]    480/624           442,416     nl_7_nl                    |                                         pad_oi8/conv2d_oi8[9, 10]       
     nl_8_nl (Nonlinearity, DEPTHWISE_CONV_2D)    [b:1,h:32,w:32,c:48]                      49,152      conv2d_8                   |                   -49,152(-100.0%)     
--------------------------------------------------------------------------------------------------------------------------------------------------------------------------------------------------------------
9    conv2d_9 (Conv2D, CONV_2D)                   [b:1,h:32,w:32,c:8]     392/416           393,224     nl_8_nl                    |                                         conv2d_oi8[11]                  
--------------------------------------------------------------------------------------------------------------------------------------------------------------------------------------------------------------
10   eltwise_10 (Eltwise, ADD)                    [b:1,h:32,w:32,c:8]                       8,192       conv2d_6                   |                                         eltwise_integer_oi8[12]         
                                                                                                        conv2d_9                   |  
--------------------------------------------------------------------------------------------------------------------------------------------------------------------------------------------------------------
11   conv2d_11 (Conv2D, CONV_2D)                  [b:1,h:32,w:32,c:48]    432/576           393,264     eltwise_10                 |                                         conv2d_oi8[13]                  
     nl_11_nl (Nonlinearity, CONV_2D)             [b:1,h:32,w:32,c:48]                      49,152      conv2d_11                  |                   -49,152(-100.0%)     
--------------------------------------------------------------------------------------------------------------------------------------------------------------------------------------------------------------
12   pad_12 (Pad, PAD)                            [b:1,h:33,w:33,c:48]                                  nl_11_nl                   |                                         pad_oi8[14]                     
--------------------------------------------------------------------------------------------------------------------------------------------------------------------------------------------------------------
13   conv2d_13 (Conv2D, DEPTHWISE_CONV_2D)        [b:1,h:16,w:16,c:48]    480/624           110,640     pad_12                     |                                         conv2d_oi8[15]                  
     nl_13_nl (Nonlinearity, DEPTHWISE_CONV_2D)   [b:1,h:16,w:16,c:48]                      12,288      conv2d_13                  |                   -12,288(-100.0%)     
--------------------------------------------------------------------------------------------------------------------------------------------------------------------------------------------------------------
14   conv2d_14 (Conv2D, CONV_2D)                  [b:1,h:16,w:16,c:16]    784/832           196,624     nl_13_nl                   |                                         conv2d_oi8[16]                  
--------------------------------------------------------------------------------------------------------------------------------------------------------------------------------------------------------------
15   conv2d_15 (Conv2D, CONV_2D)                  [b:1,h:16,w:16,c:96]    1,632/1,920       393,312     conv2d_14                  |                                         conv2d_oi8[17]                  
     nl_15_nl (Nonlinearity, CONV_2D)             [b:1,h:16,w:16,c:96]                      24,576      conv2d_15                  |                   -24,576(-100.0%)     
--------------------------------------------------------------------------------------------------------------------------------------------------------------------------------------------------------------
16   conv2d_16 (Conv2D, DEPTHWISE_CONV_2D)        [b:1,h:16,w:16,c:96]    960/1,248         221,280     nl_15_nl                   |                                         pad_oi8/conv2d_oi8[18, 19]      
     nl_16_nl (Nonlinearity, DEPTHWISE_CONV_2D)   [b:1,h:16,w:16,c:96]                      24,576      conv2d_16                  |                   -24,576(-100.0%)     
--------------------------------------------------------------------------------------------------------------------------------------------------------------------------------------------------------------
17   conv2d_17 (Conv2D, CONV_2D)                  [b:1,h:16,w:16,c:16]    1,552/1,600       393,232     nl_16_nl                   |                                         conv2d_oi8[20]                  
--------------------------------------------------------------------------------------------------------------------------------------------------------------------------------------------------------------
18   eltwise_18 (Eltwise, ADD)                    [b:1,h:16,w:16,c:16]                      4,096       conv2d_14                  |                                         eltwise_integer_oi8[21]         
                                                                                                        conv2d_17                  |  
--------------------------------------------------------------------------------------------------------------------------------------------------------------------------------------------------------------
19   conv2d_19 (Conv2D, CONV_2D)                  [b:1,h:16,w:16,c:96]    1,632/1,920       393,312     eltwise_18                 |                                         conv2d_oi8[22]                  
     nl_19_nl (Nonlinearity, CONV_2D)             [b:1,h:16,w:16,c:96]                      24,576      conv2d_19                  |                   -24,576(-100.0%)     
--------------------------------------------------------------------------------------------------------------------------------------------------------------------------------------------------------------
20   conv2d_20 (Conv2D, DEPTHWISE_CONV_2D)        [b:1,h:16,w:16,c:96]    960/1,248         221,280     nl_19_nl                   |                                         pad_oi8/conv2d_oi8[23, 24]      
     nl_20_nl (Nonlinearity, DEPTHWISE_CONV_2D)   [b:1,h:16,w:16,c:96]                      24,576      conv2d_20                  |                   -24,576(-100.0%)     
--------------------------------------------------------------------------------------------------------------------------------------------------------------------------------------------------------------
21   conv2d_21 (Conv2D, CONV_2D)                  [b:1,h:16,w:16,c:16]    1,552/1,600       393,232     nl_20_nl                   |                                         conv2d_oi8[25]                  
--------------------------------------------------------------------------------------------------------------------------------------------------------------------------------------------------------------
22   eltwise_22 (Eltwise, ADD)                    [b:1,h:16,w:16,c:16]                      4,096       eltwise_18                 |                                         eltwise_integer_oi8[26]         
                                                                                                        conv2d_21                  |  
--------------------------------------------------------------------------------------------------------------------------------------------------------------------------------------------------------------
23   conv2d_23 (Conv2D, CONV_2D)                  [b:1,h:16,w:16,c:96]    1,632/1,920       393,312     eltwise_22                 |                                         conv2d_oi8[27]                  
     nl_23_nl (Nonlinearity, CONV_2D)             [b:1,h:16,w:16,c:96]                      24,576      conv2d_23                  |                   -24,576(-100.0%)     
--------------------------------------------------------------------------------------------------------------------------------------------------------------------------------------------------------------
24   pad_24 (Pad, PAD)                            [b:1,h:17,w:17,c:96]                                  nl_23_nl                   |                                         pad_oi8[28]                     
--------------------------------------------------------------------------------------------------------------------------------------------------------------------------------------------------------------
25   conv2d_25 (Conv2D, DEPTHWISE_CONV_2D)        [b:1,h:8,w:8,c:96]      960/1,248         55,392      pad_24                     |                                         conv2d_oi8[29]                  
     nl_25_nl (Nonlinearity, DEPTHWISE_CONV_2D)   [b:1,h:8,w:8,c:96]                        6,144       conv2d_25                  |                   -6,144(-100.0%)      
--------------------------------------------------------------------------------------------------------------------------------------------------------------------------------------------------------------
26   conv2d_26 (Conv2D, CONV_2D)                  [b:1,h:8,w:8,c:24]      2,328/2,400       147,480     nl_25_nl                   |                                         conv2d_oi8[30]                  
--------------------------------------------------------------------------------------------------------------------------------------------------------------------------------------------------------------
27   conv2d_27 (Conv2D, CONV_2D)                  [b:1,h:8,w:8,c:144]     3,600/4,032       221,328     conv2d_26                  |                                         conv2d_oi8[31]                  
     nl_27_nl (Nonlinearity, CONV_2D)             [b:1,h:8,w:8,c:144]                       9,216       conv2d_27                  |                   -9,216(-100.0%)      
--------------------------------------------------------------------------------------------------------------------------------------------------------------------------------------------------------------
28   conv2d_28 (Conv2D, DEPTHWISE_CONV_2D)        [b:1,h:8,w:8,c:144]     1,440/1,872       83,088      nl_27_nl                   |                                         pad_oi8/conv2d_oi8[32, 33]      
     nl_28_nl (Nonlinearity, DEPTHWISE_CONV_2D)   [b:1,h:8,w:8,c:144]                       9,216       conv2d_28                  |                   -9,216(-100.0%)      
--------------------------------------------------------------------------------------------------------------------------------------------------------------------------------------------------------------
29   conv2d_29 (Conv2D, CONV_2D)                  [b:1,h:8,w:8,c:24]      3,480/3,552       221,208     nl_28_nl                   |                                         conv2d_oi8[34]                  
--------------------------------------------------------------------------------------------------------------------------------------------------------------------------------------------------------------
30   eltwise_30 (Eltwise, ADD)                    [b:1,h:8,w:8,c:24]                        1,536       conv2d_26                  |                                         eltwise_integer_oi8[35]         
                                                                                                        conv2d_29                  |  
--------------------------------------------------------------------------------------------------------------------------------------------------------------------------------------------------------------
31   conv2d_31 (Conv2D, CONV_2D)                  [b:1,h:8,w:8,c:144]     3,600/4,032       221,328     eltwise_30                 |                                         conv2d_oi8[36]                  
     nl_31_nl (Nonlinearity, CONV_2D)             [b:1,h:8,w:8,c:144]                       9,216       conv2d_31                  |                   -9,216(-100.0%)      
--------------------------------------------------------------------------------------------------------------------------------------------------------------------------------------------------------------
32   conv2d_32 (Conv2D, DEPTHWISE_CONV_2D)        [b:1,h:8,w:8,c:144]     1,440/1,872       83,088      nl_31_nl                   |                                         pad_oi8/conv2d_oi8[37, 38]      
     nl_32_nl (Nonlinearity, DEPTHWISE_CONV_2D)   [b:1,h:8,w:8,c:144]                       9,216       conv2d_32                  |                   -9,216(-100.0%)      
--------------------------------------------------------------------------------------------------------------------------------------------------------------------------------------------------------------
33   conv2d_33 (Conv2D, CONV_2D)                  [b:1,h:8,w:8,c:24]      3,480/3,552       221,208     nl_32_nl                   |                                         conv2d_oi8[39]                  
--------------------------------------------------------------------------------------------------------------------------------------------------------------------------------------------------------------
34   eltwise_34 (Eltwise, ADD)                    [b:1,h:8,w:8,c:24]                        1,536       eltwise_30                 |                                         eltwise_integer_oi8[40]         
                                                                                                        conv2d_33                  |  
--------------------------------------------------------------------------------------------------------------------------------------------------------------------------------------------------------------
35   conv2d_35 (Conv2D, CONV_2D)                  [b:1,h:8,w:8,c:144]     3,600/4,032       221,328     eltwise_34                 |                                         conv2d_oi8[41]                  
     nl_35_nl (Nonlinearity, CONV_2D)             [b:1,h:8,w:8,c:144]                       9,216       conv2d_35                  |                   -9,216(-100.0%)      
--------------------------------------------------------------------------------------------------------------------------------------------------------------------------------------------------------------
36   conv2d_36 (Conv2D, DEPTHWISE_CONV_2D)        [b:1,h:8,w:8,c:144]     1,440/1,872       83,088      nl_35_nl                   |                                         pad_oi8/conv2d_oi8[42, 43]      
     nl_36_nl (Nonlinearity, DEPTHWISE_CONV_2D)   [b:1,h:8,w:8,c:144]                       9,216       conv2d_36                  |                   -9,216(-100.0%)      
--------------------------------------------------------------------------------------------------------------------------------------------------------------------------------------------------------------
37   conv2d_37 (Conv2D, CONV_2D)                  [b:1,h:8,w:8,c:24]      3,480/3,552       221,208     nl_36_nl                   |                                         conv2d_oi8[44]                  
--------------------------------------------------------------------------------------------------------------------------------------------------------------------------------------------------------------
38   eltwise_38 (Eltwise, ADD)                    [b:1,h:8,w:8,c:24]                        1,536       eltwise_34                 |                                         eltwise_integer_oi8[45]         
                                                                                                        conv2d_37                  |  
--------------------------------------------------------------------------------------------------------------------------------------------------------------------------------------------------------------
39   conv2d_39 (Conv2D, CONV_2D)                  [b:1,h:8,w:8,c:144]     3,600/4,032       221,328     eltwise_38                 |                                         conv2d_oi8[46]                  
     nl_39_nl (Nonlinearity, CONV_2D)             [b:1,h:8,w:8,c:144]                       9,216       conv2d_39                  |                   -9,216(-100.0%)      
--------------------------------------------------------------------------------------------------------------------------------------------------------------------------------------------------------------
40   conv2d_40 (Conv2D, DEPTHWISE_CONV_2D)        [b:1,h:8,w:8,c:144]     1,440/1,872       83,088      nl_39_nl                   |                                         pad_oi8/conv2d_oi8[47, 48]      
     nl_40_nl (Nonlinearity, DEPTHWISE_CONV_2D)   [b:1,h:8,w:8,c:144]                       9,216       conv2d_40                  |                   -9,216(-100.0%)      
--------------------------------------------------------------------------------------------------------------------------------------------------------------------------------------------------------------
41   conv2d_41 (Conv2D, CONV_2D)                  [b:1,h:8,w:8,c:32]      4,640/4,736       294,944     nl_40_nl                   |                                         conv2d_oi8[49]                  
--------------------------------------------------------------------------------------------------------------------------------------------------------------------------------------------------------------
42   conv2d_42 (Conv2D, CONV_2D)                  [b:1,h:8,w:8,c:192]     6,336/6,912       393,408     conv2d_41                  |                                         conv2d_oi8[50]                  
     nl_42_nl (Nonlinearity, CONV_2D)             [b:1,h:8,w:8,c:192]                       12,288      conv2d_42                  |                   -12,288(-100.0%)     
--------------------------------------------------------------------------------------------------------------------------------------------------------------------------------------------------------------
43   conv2d_43 (Conv2D, DEPTHWISE_CONV_2D)        [b:1,h:8,w:8,c:192]     1,920/2,496       110,784     nl_42_nl                   |                                         pad_oi8/conv2d_oi8[51, 52]      
     nl_43_nl (Nonlinearity, DEPTHWISE_CONV_2D)   [b:1,h:8,w:8,c:192]                       12,288      conv2d_43                  |                   -12,288(-100.0%)     
--------------------------------------------------------------------------------------------------------------------------------------------------------------------------------------------------------------
44   conv2d_44 (Conv2D, CONV_2D)                  [b:1,h:8,w:8,c:32]      6,176/6,272       393,248     nl_43_nl                   |                                         conv2d_oi8[53]                  
--------------------------------------------------------------------------------------------------------------------------------------------------------------------------------------------------------------
45   eltwise_45 (Eltwise, ADD)                    [b:1,h:8,w:8,c:32]                        2,048       conv2d_41                  |                                         eltwise_integer_oi8[54]         
                                                                                                        conv2d_44                  |  
--------------------------------------------------------------------------------------------------------------------------------------------------------------------------------------------------------------
46   conv2d_46 (Conv2D, CONV_2D)                  [b:1,h:8,w:8,c:192]     6,336/6,912       393,408     eltwise_45                 |                                         conv2d_oi8[55]                  
     nl_46_nl (Nonlinearity, CONV_2D)             [b:1,h:8,w:8,c:192]                       12,288      conv2d_46                  |                   -12,288(-100.0%)     
--------------------------------------------------------------------------------------------------------------------------------------------------------------------------------------------------------------
47   conv2d_47 (Conv2D, DEPTHWISE_CONV_2D)        [b:1,h:8,w:8,c:192]     1,920/2,496       110,784     nl_46_nl                   |                                         pad_oi8/conv2d_oi8[56, 57]      
     nl_47_nl (Nonlinearity, DEPTHWISE_CONV_2D)   [b:1,h:8,w:8,c:192]                       12,288      conv2d_47                  |                   -12,288(-100.0%)     
--------------------------------------------------------------------------------------------------------------------------------------------------------------------------------------------------------------
48   conv2d_48 (Conv2D, CONV_2D)                  [b:1,h:8,w:8,c:32]      6,176/6,272       393,248     nl_47_nl                   |                                         conv2d_oi8[58]                  
--------------------------------------------------------------------------------------------------------------------------------------------------------------------------------------------------------------
49   eltwise_49 (Eltwise, ADD)                    [b:1,h:8,w:8,c:32]                        2,048       eltwise_45                 |                                         eltwise_integer_oi8[59]         
                                                                                                        conv2d_48                  |  
--------------------------------------------------------------------------------------------------------------------------------------------------------------------------------------------------------------
50   conv2d_50 (Conv2D, CONV_2D)                  [b:1,h:8,w:8,c:192]     6,336/6,912       393,408     eltwise_49                 |                                         conv2d_oi8[60]                  
     nl_50_nl (Nonlinearity, CONV_2D)             [b:1,h:8,w:8,c:192]                       12,288      conv2d_50                  |                   -12,288(-100.0%)     
--------------------------------------------------------------------------------------------------------------------------------------------------------------------------------------------------------------
51   pad_51 (Pad, PAD)                            [b:1,h:9,w:9,c:192]                                   nl_50_nl                   |                                         pad_oi8[61]                     
--------------------------------------------------------------------------------------------------------------------------------------------------------------------------------------------------------------
52   conv2d_52 (Conv2D, DEPTHWISE_CONV_2D)        [b:1,h:4,w:4,c:192]     1,920/2,496       27,840      pad_51                     |                                         conv2d_oi8[62]                  
     nl_52_nl (Nonlinearity, DEPTHWISE_CONV_2D)   [b:1,h:4,w:4,c:192]                       3,072       conv2d_52                  |                   -3,072(-100.0%)      
--------------------------------------------------------------------------------------------------------------------------------------------------------------------------------------------------------------
53   conv2d_53 (Conv2D, CONV_2D)                  [b:1,h:4,w:4,c:56]      10,808/10,976     172,088     nl_52_nl                   |                                         conv2d_oi8[63]                  
--------------------------------------------------------------------------------------------------------------------------------------------------------------------------------------------------------------
54   conv2d_54 (Conv2D, CONV_2D)                  [b:1,h:4,w:4,c:336]     19,152/20,160     301,392     conv2d_53                  |                                         conv2d_oi8[64]                  
     nl_54_nl (Nonlinearity, CONV_2D)             [b:1,h:4,w:4,c:336]                       5,376       conv2d_54                  |                   -5,376(-100.0%)      
--------------------------------------------------------------------------------------------------------------------------------------------------------------------------------------------------------------
55   conv2d_55 (Conv2D, DEPTHWISE_CONV_2D)        [b:1,h:4,w:4,c:336]     3,360/4,368       48,720      nl_54_nl                   |                                         pad_oi8/conv2d_oi8[65, 66]      
     nl_55_nl (Nonlinearity, DEPTHWISE_CONV_2D)   [b:1,h:4,w:4,c:336]                       5,376       conv2d_55                  |                   -5,376(-100.0%)      
--------------------------------------------------------------------------------------------------------------------------------------------------------------------------------------------------------------
56   conv2d_56 (Conv2D, CONV_2D)                  [b:1,h:4,w:4,c:56]      18,872/19,040     301,112     nl_55_nl                   |                                         conv2d_oi8[67]                  
--------------------------------------------------------------------------------------------------------------------------------------------------------------------------------------------------------------
57   eltwise_57 (Eltwise, ADD)                    [b:1,h:4,w:4,c:56]                        896         conv2d_53                  |                                         eltwise_integer_oi8[68]         
                                                                                                        conv2d_56                  |  
--------------------------------------------------------------------------------------------------------------------------------------------------------------------------------------------------------------
58   conv2d_58 (Conv2D, CONV_2D)                  [b:1,h:4,w:4,c:336]     19,152/20,160     301,392     eltwise_57                 |                                         conv2d_oi8[69]                  
     nl_58_nl (Nonlinearity, CONV_2D)             [b:1,h:4,w:4,c:336]                       5,376       conv2d_58                  |                   -5,376(-100.0%)      
--------------------------------------------------------------------------------------------------------------------------------------------------------------------------------------------------------------
59   conv2d_59 (Conv2D, DEPTHWISE_CONV_2D)        [b:1,h:4,w:4,c:336]     3,360/4,368       48,720      nl_58_nl                   |                                         pad_oi8/conv2d_oi8[70, 71]      
     nl_59_nl (Nonlinearity, DEPTHWISE_CONV_2D)   [b:1,h:4,w:4,c:336]                       5,376       conv2d_59                  |                   -5,376(-100.0%)      
--------------------------------------------------------------------------------------------------------------------------------------------------------------------------------------------------------------
60   conv2d_60 (Conv2D, CONV_2D)                  [b:1,h:4,w:4,c:56]      18,872/19,040     301,112     nl_59_nl                   |                                         conv2d_oi8[72]                  
--------------------------------------------------------------------------------------------------------------------------------------------------------------------------------------------------------------
61   eltwise_61 (Eltwise, ADD)                    [b:1,h:4,w:4,c:56]                        896         eltwise_57                 |                                         eltwise_integer_oi8[73]         
                                                                                                        conv2d_60                  |  
--------------------------------------------------------------------------------------------------------------------------------------------------------------------------------------------------------------
62   conv2d_62 (Conv2D, CONV_2D)                  [b:1,h:4,w:4,c:336]     19,152/20,160     301,392     eltwise_61                 |                                         conv2d_oi8[74]                  
     nl_62_nl (Nonlinearity, CONV_2D)             [b:1,h:4,w:4,c:336]                       5,376       conv2d_62                  |                   -5,376(-100.0%)      
--------------------------------------------------------------------------------------------------------------------------------------------------------------------------------------------------------------
63   conv2d_63 (Conv2D, DEPTHWISE_CONV_2D)        [b:1,h:4,w:4,c:336]     3,360/4,368       48,720      nl_62_nl                   |                                         pad_oi8/conv2d_oi8[75, 76]      
     nl_63_nl (Nonlinearity, DEPTHWISE_CONV_2D)   [b:1,h:4,w:4,c:336]                       5,376       conv2d_63                  |                   -5,376(-100.0%)      
--------------------------------------------------------------------------------------------------------------------------------------------------------------------------------------------------------------
64   conv2d_64 (Conv2D, CONV_2D)                  [b:1,h:4,w:4,c:112]     37,744/38,080     602,224     nl_63_nl                   |                                         conv2d_oi8[77]                  
--------------------------------------------------------------------------------------------------------------------------------------------------------------------------------------------------------------
65   conv2d_65 (Conv2D, CONV_2D)                  [b:1,h:4,w:4,c:1280]    144,640/148,480   2,295,040   conv2d_64                  |                                         conv2d_oi8[78]                  
     nl_65_nl (Nonlinearity, CONV_2D)             [b:1,h:4,w:4,c:1280]                      20,480      conv2d_65                  |                   -20,480(-100.0%)     
--------------------------------------------------------------------------------------------------------------------------------------------------------------------------------------------------------------
66   pool_66 (Pool, MEAN)                         [b:1,h:1,w:1,c:1280]                      20,480      nl_65_nl                   |                                         pool_oi8[79]                    
     reshape_66_reshape (Reshape, MEAN)           [b:1,c:1280]                                          pool_66                    |                                        
--------------------------------------------------------------------------------------------------------------------------------------------------------------------------------------------------------------
67   dense_67 (Dense, FULLY_CONNECTED)            [b:1,c:5]               6,405/6,420       6,405       reshape_66_reshape         |                   +10(+0.2%)            dense_oi8/converter_of32[80, 81]
--------------------------------------------------------------------------------------------------------------------------------------------------------------------------------------------------------------
68   nl_68 (Nonlinearity, SOFTMAX)                [b:1,c:5]                                 75          dense_67                   |                                         nl_of32[o][82]                  
--------------------------------------------------------------------------------------------------------------------------------------------------------------------------------------------------------------
69   conversion_69 (Conversion, DEQUANTIZE)       [b:1,c:5]                                 10          nl_68                      |                   -10(-100.0%)         
--------------------------------------------------------------------------------------------------------------------------------------------------------------------------------------------------------------
model/c-model: macc=19,858,138/19,001,562 -856,576(-4.3%) weights=416,628/416,628  activations=--/207,920 io=--/0



Generated C-graph summary
------------------------------------------------------------------------------------------------------------------------
model name            : mobilenet_v2_0_35_128_input_int8
c-name                : network
c-node #              : 83
c-array #             : 278
activations size      : 207920 (1 segment)
weights size          : 416628 (1 segment)
macc                  : 19001562
inputs                : ['serving_default_input_10_output']
outputs               : ['nl_68_output']

C-Arrays (278)
---------------------------------------------------------------------------------------------------------------------------
c_id   name (*_array)                    item/size       domain/mem-pool           c-type          fmt             comment
---------------------------------------------------------------------------------------------------------------------------
0      conv2d_7_bias                     48/192          weights/weights           const int32_t   ss32/ch(48)            
1      conv2d_26_scratch0                624/624         activations/**default**   int8_t          s8                     
2      conv2d_8_weights                  432/432         weights/weights           const int8_t    ss8/ch(48)             
3      conv2d_8_bias                     48/192          weights/weights           const int32_t   ss32/ch(48)            
4      conv2d_27_scratch0                1536/1536       activations/**default**   int8_t          s8                     
5      conv2d_27_scratch1                9216/9216       activations/**default**   int8_t          sa8                    
6      conv2d_9_weights                  384/384         weights/weights           const int8_t    ss8/ch(8)              
7      conv2d_9_bias                     8/32            weights/weights           const int32_t   ss32/ch(8)             
8      conv2d_28_scratch0                5329/5329       activations/**default**   int8_t          s8                     
9      conv2d_28_scratch1                9216/9216       activations/**default**   int8_t          sa8                    
10     conv2d_11_weights                 384/384         weights/weights           const int8_t    ss8/ch(48)             
11     conv2d_11_bias                    48/192          weights/weights           const int32_t   ss32/ch(48)            
12     conv2d_29_scratch0                816/816         activations/**default**   int8_t          s8                     
13     conv2d_13_weights                 432/432         weights/weights           const int8_t    ss8/ch(48)             
14     conv2d_31_scratch0                1536/1536       activations/**default**   int8_t          s8                     
15     conv2d_13_bias                    48/192          weights/weights           const int32_t   ss32/ch(48)            
16     conv2d_31_scratch1                9216/9216       activations/**default**   int8_t          sa8                    
17     conv2d_14_weights                 768/768         weights/weights           const int8_t    ss8/ch(16)             
18     conv2d_32_scratch0                5329/5329       activations/**default**   int8_t          s8                     
19     conv2d_14_bias                    16/64           weights/weights           const int32_t   ss32/ch(16)            
20     conv2d_32_scratch1                9216/9216       activations/**default**   int8_t          sa8                    
21     conv2d_15_weights                 1536/1536       weights/weights           const int8_t    ss8/ch(96)             
22     conv2d_33_scratch0                816/816         activations/**default**   int8_t          s8                     
23     conv2d_15_bias                    96/384          weights/weights           const int32_t   ss32/ch(96)            
24     conv2d_35_scratch0                1536/1536       activations/**default**   int8_t          s8                     
25     conv2d_16_weights                 864/864         weights/weights           const int8_t    ss8/ch(96)             
26     conv2d_35_scratch1                9216/9216       activations/**default**   int8_t          sa8                    
27     conv2d_16_bias                    96/384          weights/weights           const int32_t   ss32/ch(96)            
28     conv2d_36_scratch0                5329/5329       activations/**default**   int8_t          s8                     
29     conv2d_17_weights                 1536/1536       weights/weights           const int8_t    ss8/ch(16)             
30     conv2d_36_scratch1                9216/9216       activations/**default**   int8_t          sa8                    
31     conv2d_17_bias                    16/64           weights/weights           const int32_t   ss32/ch(16)            
32     conv2d_37_scratch0                816/816         activations/**default**   int8_t          s8                     
33     conv2d_19_weights                 1536/1536       weights/weights           const int8_t    ss8/ch(96)             
34     conv2d_39_scratch0                1536/1536       activations/**default**   int8_t          s8                     
35     conv2d_19_bias                    96/384          weights/weights           const int32_t   ss32/ch(96)            
36     conv2d_39_scratch1                9216/9216       activations/**default**   int8_t          sa8                    
37     conv2d_20_weights                 864/864         weights/weights           const int8_t    ss8/ch(96)             
38     conv2d_40_scratch0                5329/5329       activations/**default**   int8_t          s8                     
39     conv2d_20_bias                    96/384          weights/weights           const int32_t   ss32/ch(96)            
40     conv2d_40_scratch1                9216/9216       activations/**default**   int8_t          sa8                    
41     conv2d_21_weights                 1536/1536       weights/weights           const int8_t    ss8/ch(16)             
42     conv2d_41_scratch0                896/896         activations/**default**   int8_t          s8                     
43     conv2d_21_bias                    16/64           weights/weights           const int32_t   ss32/ch(16)            
44     conv2d_23_weights                 1536/1536       weights/weights           const int8_t    ss8/ch(96)             
45     conv2d_42_scratch0                2048/2048       activations/**default**   int8_t          s8                     
46     conv2d_42_scratch1                12288/12288     activations/**default**   int8_t          sa8                    
47     conv2d_23_bias                    96/384          weights/weights           const int32_t   ss32/ch(96)            
48     conv2d_25_weights                 864/864         weights/weights           const int8_t    ss8/ch(96)             
49     conv2d_43_scratch0                7105/7105       activations/**default**   int8_t          s8                     
50     conv2d_43_scratch1                12288/12288     activations/**default**   int8_t          sa8                    
51     conv2d_25_bias                    96/384          weights/weights           const int32_t   ss32/ch(96)            
52     conv2d_26_weights                 2304/2304       weights/weights           const int8_t    ss8/ch(24)             
53     conv2d_44_scratch0                1088/1088       activations/**default**   int8_t          s8                     
54     conv2d_26_bias                    24/96           weights/weights           const int32_t   ss32/ch(24)            
55     conv2d_46_scratch0                2048/2048       activations/**default**   int8_t          s8                     
56     conv2d_27_weights                 3456/3456       weights/weights           const int8_t    ss8/ch(144)            
57     conv2d_46_scratch1                12288/12288     activations/**default**   int8_t          sa8                    
58     conv2d_27_bias                    144/576         weights/weights           const int32_t   ss32/ch(144)           
59     conv2d_47_scratch0                7105/7105       activations/**default**   int8_t          s8                     
60     conv2d_28_weights                 1296/1296       weights/weights           const int8_t    ss8/ch(144)            
61     conv2d_47_scratch1                12288/12288     activations/**default**   int8_t          sa8                    
62     conv2d_28_bias                    144/576         weights/weights           const int32_t   ss32/ch(144)           
63     conv2d_48_scratch0                1088/1088       activations/**default**   int8_t          s8                     
64     conv2d_29_weights                 3456/3456       weights/weights           const int8_t    ss8/ch(24)             
65     conv2d_50_scratch0                2048/2048       activations/**default**   int8_t          s8                     
66     conv2d_29_bias                    24/96           weights/weights           const int32_t   ss32/ch(24)            
67     conv2d_50_scratch1                12288/12288     activations/**default**   int8_t          sa8                    
68     conv2d_31_weights                 3456/3456       weights/weights           const int8_t    ss8/ch(144)            
69     conv2d_52_scratch0                7105/7105       activations/**default**   int8_t          s8                     
70     conv2d_31_bias                    144/576         weights/weights           const int32_t   ss32/ch(144)           
71     conv2d_52_scratch1                3072/3072       activations/**default**   int8_t          sa8                    
72     conv2d_32_weights                 1296/1296       weights/weights           const int8_t    ss8/ch(144)            
73     conv2d_53_scratch0                1328/1328       activations/**default**   int8_t          s8                     
74     conv2d_32_bias                    144/576         weights/weights           const int32_t   ss32/ch(144)           
75     conv2d_54_scratch0                3584/3584       activations/**default**   int8_t          s8                     
76     conv2d_33_weights                 3456/3456       weights/weights           const int8_t    ss8/ch(24)             
77     conv2d_54_scratch1                5376/5376       activations/**default**   int8_t          sa8                    
78     conv2d_33_bias                    24/96           weights/weights           const int32_t   ss32/ch(24)            
79     conv2d_55_scratch0                12433/12433     activations/**default**   int8_t          s8                     
80     conv2d_35_weights                 3456/3456       weights/weights           const int8_t    ss8/ch(144)            
81     conv2d_55_scratch1                5376/5376       activations/**default**   int8_t          sa8                    
82     conv2d_35_bias                    144/576         weights/weights           const int32_t   ss32/ch(144)           
83     conv2d_56_scratch0                1904/1904       activations/**default**   int8_t          s8                     
84     conv2d_36_weights                 1296/1296       weights/weights           const int8_t    ss8/ch(144)            
85     conv2d_36_bias                    144/576         weights/weights           const int32_t   ss32/ch(144)           
86     conv2d_58_scratch0                3584/3584       activations/**default**   int8_t          s8                     
87     conv2d_58_scratch1                5376/5376       activations/**default**   int8_t          sa8                    
88     conv2d_37_weights                 3456/3456       weights/weights           const int8_t    ss8/ch(24)             
89     conv2d_37_bias                    24/96           weights/weights           const int32_t   ss32/ch(24)            
90     serving_default_input_10_output   49152/49153     activations/**default**   int8_t          sa8             /input 
91     conv2d_59_scratch0                12433/12433     activations/**default**   int8_t          s8                     
92     conv2d_0_output                   65536/65536     activations/**default**   int8_t          sa8                    
93     conv2d_39_weights                 3456/3456       weights/weights           const int8_t    ss8/ch(144)            
94     conv2d_1_pad_before_output        69696/69696     activations/**default**   int8_t          sa8                    
95     conv2d_59_scratch1                5376/5376       activations/**default**   int8_t          sa8                    
96     conv2d_1_output                   65536/65536     activations/**default**   int8_t          sa8                    
97     conv2d_39_bias                    144/576         weights/weights           const int32_t   ss32/ch(144)           
98     conv2d_2_output                   32768/32768     activations/**default**   int8_t          sa8                    
99     conv2d_60_scratch0                1904/1904       activations/**default**   int8_t          s8                     
100    conv2d_3_output                   196608/196608   activations/**default**   int8_t          sa8                    
101    conv2d_40_weights                 1296/1296       weights/weights           const int8_t    ss8/ch(144)            
102    conv2d_5_pad_before_output        202800/202800   activations/**default**   int8_t          sa8                    
103    conv2d_62_scratch0                3584/3584       activations/**default**   int8_t          s8                     
104    conv2d_5_output                   49152/49152     activations/**default**   int8_t          sa8                    
105    conv2d_40_bias                    144/576         weights/weights           const int32_t   ss32/ch(144)           
106    conv2d_6_output                   8192/8192       activations/**default**   int8_t          sa8                    
107    conv2d_62_scratch1                5376/5376       activations/**default**   int8_t          sa8                    
108    conv2d_7_output                   49152/49152     activations/**default**   int8_t          sa8                    
109    conv2d_41_weights                 4608/4608       weights/weights           const int8_t    ss8/ch(32)             
110    conv2d_8_pad_before_output        55488/55488     activations/**default**   int8_t          sa8                    
111    conv2d_63_scratch0                12433/12433     activations/**default**   int8_t          s8                     
112    conv2d_8_output                   49152/49152     activations/**default**   int8_t          sa8                    
113    conv2d_41_bias                    32/128          weights/weights           const int32_t   ss32/ch(32)            
114    conv2d_9_output                   8192/8192       activations/**default**   int8_t          ss8                    
115    conv2d_63_scratch1                5376/5376       activations/**default**   int8_t          sa8                    
116    eltwise_10_output                 8192/8192       activations/**default**   int8_t          sa8                    
117    conv2d_42_weights                 6144/6144       weights/weights           const int8_t    ss8/ch(192)            
118    conv2d_11_output                  49152/49152     activations/**default**   int8_t          sa8                    
119    conv2d_64_scratch0                2464/2464       activations/**default**   int8_t          s8                     
120    conv2d_13_pad_before_output       52272/52272     activations/**default**   int8_t          sa8                    
121    conv2d_42_bias                    192/768         weights/weights           const int32_t   ss32/ch(192)           
122    conv2d_13_output                  12288/12288     activations/**default**   int8_t          sa8                    
123    conv2d_65_scratch0                13248/13248     activations/**default**   int8_t          s8                     
124    conv2d_14_output                  4096/4096       activations/**default**   int8_t          sa8                    
125    conv2d_43_weights                 1728/1728       weights/weights           const int8_t    ss8/ch(192)            
126    conv2d_15_output                  24576/24576     activations/**default**   int8_t          sa8                    
127    conv2d_65_scratch1                20480/20480     activations/**default**   int8_t          sa8                    
128    conv2d_16_pad_before_output       31104/31104     activations/**default**   int8_t          sa8                    
129    conv2d_43_bias                    192/768         weights/weights           const int32_t   ss32/ch(192)           
130    conv2d_16_output                  24576/24576     activations/**default**   int8_t          sa8                    
131    dense_67_scratch0                 1280/2560       activations/**default**   int16_t         s16                    
132    conv2d_17_output                  4096/4096       activations/**default**   int8_t          sa8                    
133    conv2d_44_weights                 6144/6144       weights/weights           const int8_t    ss8/ch(32)             
134    eltwise_18_output                 4096/4096       activations/**default**   int8_t          sa8                    
135    conv2d_19_output                  24576/24576     activations/**default**   int8_t          sa8                    
136    conv2d_44_bias                    32/128          weights/weights           const int32_t   ss32/ch(32)            
137    conv2d_20_pad_before_output       31104/31104     activations/**default**   int8_t          sa8                    
138    conv2d_20_output                  24576/24576     activations/**default**   int8_t          sa8                    
139    conv2d_46_weights                 6144/6144       weights/weights           const int8_t    ss8/ch(192)            
140    conv2d_21_output                  4096/4096       activations/**default**   int8_t          sa8                    
141    eltwise_22_output                 4096/4096       activations/**default**   int8_t          sa8                    
142    conv2d_46_bias                    192/768         weights/weights           const int32_t   ss32/ch(192)           
143    conv2d_23_output                  24576/24576     activations/**default**   int8_t          sa8                    
144    conv2d_25_pad_before_output       27744/27744     activations/**default**   int8_t          sa8                    
145    conv2d_47_weights                 1728/1728       weights/weights           const int8_t    ss8/ch(192)            
146    conv2d_25_output                  6144/6144       activations/**default**   int8_t          sa8                    
147    conv2d_26_output                  1536/1536       activations/**default**   int8_t          sa8                    
148    conv2d_47_bias                    192/768         weights/weights           const int32_t   ss32/ch(192)           
149    conv2d_27_output                  9216/9216       activations/**default**   int8_t          sa8                    
150    conv2d_28_pad_before_output       14400/14400     activations/**default**   int8_t          sa8                    
151    conv2d_48_weights                 6144/6144       weights/weights           const int8_t    ss8/ch(32)             
152    conv2d_28_output                  9216/9216       activations/**default**   int8_t          sa8                    
153    conv2d_29_output                  1536/1536       activations/**default**   int8_t          sa8                    
154    conv2d_48_bias                    32/128          weights/weights           const int32_t   ss32/ch(32)            
155    eltwise_30_output                 1536/1536       activations/**default**   int8_t          sa8                    
156    conv2d_31_output                  9216/9216       activations/**default**   int8_t          sa8                    
157    conv2d_50_weights                 6144/6144       weights/weights           const int8_t    ss8/ch(192)            
158    conv2d_32_pad_before_output       14400/14400     activations/**default**   int8_t          sa8                    
159    conv2d_32_output                  9216/9216       activations/**default**   int8_t          sa8                    
160    conv2d_50_bias                    192/768         weights/weights           const int32_t   ss32/ch(192)           
161    conv2d_33_output                  1536/1536       activations/**default**   int8_t          sa8                    
162    eltwise_34_output                 1536/1536       activations/**default**   int8_t          sa8                    
163    conv2d_52_weights                 1728/1728       weights/weights           const int8_t    ss8/ch(192)            
164    conv2d_35_output                  9216/9216       activations/**default**   int8_t          sa8                    
165    conv2d_36_pad_before_output       14400/14400     activations/**default**   int8_t          sa8                    
166    conv2d_52_bias                    192/768         weights/weights           const int32_t   ss32/ch(192)           
167    conv2d_36_output                  9216/9216       activations/**default**   int8_t          sa8                    
168    conv2d_37_output                  1536/1536       activations/**default**   int8_t          sa8                    
169    conv2d_53_weights                 10752/10752     weights/weights           const int8_t    ss8/ch(56)             
170    eltwise_38_output                 1536/1536       activations/**default**   int8_t          sa8                    
171    conv2d_39_output                  9216/9216       activations/**default**   int8_t          sa8                    
172    conv2d_53_bias                    56/224          weights/weights           const int32_t   ss32/ch(56)            
173    conv2d_40_pad_before_output       14400/14400     activations/**default**   int8_t          sa8                    
174    conv2d_40_output                  9216/9216       activations/**default**   int8_t          sa8                    
175    conv2d_54_weights                 18816/18816     weights/weights           const int8_t    ss8/ch(336)            
176    conv2d_41_output                  2048/2048       activations/**default**   int8_t          sa8                    
177    conv2d_42_output                  12288/12288     activations/**default**   int8_t          sa8                    
178    conv2d_54_bias                    336/1344        weights/weights           const int32_t   ss32/ch(336)           
179    conv2d_43_pad_before_output       19200/19200     activations/**default**   int8_t          sa8                    
180    conv2d_43_output                  12288/12288     activations/**default**   int8_t          sa8                    
181    conv2d_55_weights                 3024/3024       weights/weights           const int8_t    ss8/ch(336)            
182    conv2d_44_output                  2048/2048       activations/**default**   int8_t          sa8                    
183    eltwise_45_output                 2048/2048       activations/**default**   int8_t          sa8                    
184    conv2d_55_bias                    336/1344        weights/weights           const int32_t   ss32/ch(336)           
185    conv2d_46_output                  12288/12288     activations/**default**   int8_t          sa8                    
186    conv2d_47_pad_before_output       19200/19200     activations/**default**   int8_t          sa8                    
187    conv2d_56_weights                 18816/18816     weights/weights           const int8_t    ss8/ch(56)             
188    conv2d_47_output                  12288/12288     activations/**default**   int8_t          sa8                    
189    conv2d_48_output                  2048/2048       activations/**default**   int8_t          sa8                    
190    conv2d_56_bias                    56/224          weights/weights           const int32_t   ss32/ch(56)            
191    eltwise_49_output                 2048/2048       activations/**default**   int8_t          sa8                    
192    conv2d_50_output                  12288/12288     activations/**default**   int8_t          sa8                    
193    conv2d_58_weights                 18816/18816     weights/weights           const int8_t    ss8/ch(336)            
194    conv2d_52_pad_before_output       15552/15552     activations/**default**   int8_t          sa8                    
195    conv2d_52_output                  3072/3072       activations/**default**   int8_t          sa8                    
196    conv2d_58_bias                    336/1344        weights/weights           const int32_t   ss32/ch(336)           
197    conv2d_53_output                  896/896         activations/**default**   int8_t          ss8                    
198    conv2d_54_output                  5376/5376       activations/**default**   int8_t          sa8                    
199    conv2d_59_weights                 3024/3024       weights/weights           const int8_t    ss8/ch(336)            
200    conv2d_55_pad_before_output       12096/12096     activations/**default**   int8_t          sa8                    
201    conv2d_55_output                  5376/5376       activations/**default**   int8_t          sa8                    
202    conv2d_59_bias                    336/1344        weights/weights           const int32_t   ss32/ch(336)           
203    conv2d_56_output                  896/896         activations/**default**   int8_t          sa8                    
204    eltwise_57_output                 896/896         activations/**default**   int8_t          sa8                    
205    conv2d_60_weights                 18816/18816     weights/weights           const int8_t    ss8/ch(56)             
206    conv2d_58_output                  5376/5376       activations/**default**   int8_t          sa8                    
207    conv2d_59_pad_before_output       12096/12096     activations/**default**   int8_t          sa8                    
208    conv2d_60_bias                    56/224          weights/weights           const int32_t   ss32/ch(56)            
209    conv2d_59_output                  5376/5376       activations/**default**   int8_t          sa8                    
210    conv2d_60_output                  896/896         activations/**default**   int8_t          sa8                    
211    conv2d_62_weights                 18816/18816     weights/weights           const int8_t    ss8/ch(336)            
212    eltwise_61_output                 896/896         activations/**default**   int8_t          sa8                    
213    conv2d_62_output                  5376/5376       activations/**default**   int8_t          sa8                    
214    conv2d_62_bias                    336/1344        weights/weights           const int32_t   ss32/ch(336)           
215    conv2d_63_pad_before_output       12096/12096     activations/**default**   int8_t          sa8                    
216    conv2d_63_output                  5376/5376       activations/**default**   int8_t          sa8                    
217    conv2d_63_weights                 3024/3024       weights/weights           const int8_t    ss8/ch(336)            
218    conv2d_64_output                  1792/1792       activations/**default**   int8_t          sa8                    
219    conv2d_65_output                  20480/20480     activations/**default**   int8_t          sa8                    
220    conv2d_63_bias                    336/1344        weights/weights           const int32_t   ss32/ch(336)           
221    pool_66_output                    1280/1280       activations/**default**   int8_t          sa8                    
222    dense_67_output                   5/5             activations/**default**   int8_t          sa8                    
223    conv2d_64_weights                 37632/37632     weights/weights           const int8_t    ss8/ch(112)            
224    dense_67_0_conversion_output      5/20            activations/**default**   float           float32                
225    nl_68_output                      5/20            activations/**default**   float           float32         /output
226    conv2d_64_bias                    112/448         weights/weights           const int32_t   ss32/ch(112)           
227    conv2d_65_weights                 143360/143360   weights/weights           const int8_t    ss8/ch(1280)           
228    conv2d_65_bias                    1280/5120       weights/weights           const int32_t   ss32/ch(1280)          
229    dense_67_weights                  6400/6400       weights/weights           const int8_t    ss8                    
230    dense_67_bias                     5/20            weights/weights           const int32_t   ss32                   
231    conv2d_0_scratch0                 1196/1196       activations/**default**   int8_t          s8                     
232    conv2d_0_scratch1                 65536/65536     activations/**default**   int8_t          sa8                    
233    conv2d_1_scratch0                 593/593         activations/**default**   int8_t          s8                     
234    conv2d_1_scratch1                 65536/65536     activations/**default**   int8_t          sa8                    
235    conv2d_2_scratch0                 144/144         activations/**default**   int8_t          s8                     
236    conv2d_3_scratch0                 512/512         activations/**default**   int8_t          s8                     
237    conv2d_3_scratch1                 196608/196608   activations/**default**   int8_t          sa8                    
238    conv2d_5_scratch0                 1777/1777       activations/**default**   int8_t          s8                     
239    conv2d_5_scratch1                 49152/49152     activations/**default**   int8_t          sa8                    
240    conv2d_6_scratch0                 272/272         activations/**default**   int8_t          s8                     
241    conv2d_7_scratch0                 512/512         activations/**default**   int8_t          s8                     
242    conv2d_7_scratch1                 49152/49152     activations/**default**   int8_t          sa8                    
243    conv2d_8_scratch0                 1777/1777       activations/**default**   int8_t          s8                     
244    conv2d_8_scratch1                 49152/49152     activations/**default**   int8_t          sa8                    
245    conv2d_9_scratch0                 272/272         activations/**default**   int8_t          s8                     
246    conv2d_11_scratch0                512/512         activations/**default**   int8_t          s8                     
247    conv2d_11_scratch1                49152/49152     activations/**default**   int8_t          sa8                    
248    conv2d_13_scratch0                1777/1777       activations/**default**   int8_t          s8                     
249    conv2d_13_scratch1                12288/12288     activations/**default**   int8_t          sa8                    
250    conv2d_14_scratch0                352/352         activations/**default**   int8_t          s8                     
251    conv2d_15_scratch0                1024/1024       activations/**default**   int8_t          s8                     
252    conv2d_0_weights                  432/432         weights/weights           const int8_t    ss8/ch(16)             
253    conv2d_15_scratch1                24576/24576     activations/**default**   int8_t          sa8                    
254    conv2d_0_bias                     16/64           weights/weights           const int32_t   ss32/ch(16)            
255    conv2d_16_scratch0                3553/3553       activations/**default**   int8_t          s8                     
256    conv2d_1_weights                  144/144         weights/weights           const int8_t    ss8/ch(16)             
257    conv2d_16_scratch1                24576/24576     activations/**default**   int8_t          sa8                    
258    conv2d_1_bias                     16/64           weights/weights           const int32_t   ss32/ch(16)            
259    conv2d_17_scratch0                544/544         activations/**default**   int8_t          s8                     
260    conv2d_2_weights                  128/128         weights/weights           const int8_t    ss8/ch(8)              
261    conv2d_19_scratch0                1024/1024       activations/**default**   int8_t          s8                     
262    conv2d_2_bias                     8/32            weights/weights           const int32_t   ss32/ch(8)             
263    conv2d_19_scratch1                24576/24576     activations/**default**   int8_t          sa8                    
264    conv2d_3_weights                  384/384         weights/weights           const int8_t    ss8/ch(48)             
265    conv2d_20_scratch0                3553/3553       activations/**default**   int8_t          s8                     
266    conv2d_3_bias                     48/192          weights/weights           const int32_t   ss32/ch(48)            
267    conv2d_20_scratch1                24576/24576     activations/**default**   int8_t          sa8                    
268    conv2d_5_weights                  432/432         weights/weights           const int8_t    ss8/ch(48)             
269    conv2d_21_scratch0                544/544         activations/**default**   int8_t          s8                     
270    conv2d_5_bias                     48/192          weights/weights           const int32_t   ss32/ch(48)            
271    conv2d_23_scratch0                1024/1024       activations/**default**   int8_t          s8                     
272    conv2d_6_weights                  384/384         weights/weights           const int8_t    ss8/ch(8)              
273    conv2d_23_scratch1                24576/24576     activations/**default**   int8_t          sa8                    
274    conv2d_6_bias                     8/32            weights/weights           const int32_t   ss32/ch(8)             
275    conv2d_25_scratch0                3553/3553       activations/**default**   int8_t          s8                     
276    conv2d_7_weights                  384/384         weights/weights           const int8_t    ss8/ch(48)             
277    conv2d_25_scratch1                6144/6144       activations/**default**   int8_t          sa8                    
---------------------------------------------------------------------------------------------------------------------------

C-Layers (83)
-------------------------------------------------------------------------------------------------------------------------------------
c_id   name (*_layer)          id   layer_type          macc      rom      tensors                              shape (array id)    
-------------------------------------------------------------------------------------------------------------------------------------
0      conv2d_0                0    optimized_conv2d    1769488   496      I: serving_default_input_10_output   (1,128,128,3) (90)  
                                                                           S: conv2d_0_scratch0                                     
                                                                           S: conv2d_0_scratch1                                     
                                                                           W: conv2d_0_weights                  (3,16,3,3) (252)    
                                                                           W: conv2d_0_bias                     (1,1,1,16) (254)    
                                                                           O: conv2d_0_output                   (1,64,64,16) (92)   
-------------------------------------------------------------------------------------------------------------------------------------
1      conv2d_1_pad_before     1    pad                 0         0        I: conv2d_0_output                   (1,64,64,16) (92)   
                                                                           O: conv2d_1_pad_before_output        (1,66,66,16) (94)   
-------------------------------------------------------------------------------------------------------------------------------------
2      conv2d_1                1    conv2d              589840    208      I: conv2d_1_pad_before_output        (1,66,66,16) (94)   
                                                                           S: conv2d_1_scratch0                                     
                                                                           S: conv2d_1_scratch1                                     
                                                                           W: conv2d_1_weights                  (16,1,3,3) (256)    
                                                                           W: conv2d_1_bias                     (1,1,1,16) (258)    
                                                                           O: conv2d_1_output                   (1,64,64,16) (96)   
-------------------------------------------------------------------------------------------------------------------------------------
3      conv2d_2                2    conv2d              524296    160      I: conv2d_1_output                   (1,64,64,16) (96)   
                                                                           S: conv2d_2_scratch0                                     
                                                                           W: conv2d_2_weights                  (16,8,1,1) (260)    
                                                                           W: conv2d_2_bias                     (1,1,1,8) (262)     
                                                                           O: conv2d_2_output                   (1,64,64,8) (98)    
-------------------------------------------------------------------------------------------------------------------------------------
4      conv2d_3                3    conv2d              1572912   576      I: conv2d_2_output                   (1,64,64,8) (98)    
                                                                           S: conv2d_3_scratch0                                     
                                                                           S: conv2d_3_scratch1                                     
                                                                           W: conv2d_3_weights                  (8,48,1,1) (264)    
                                                                           W: conv2d_3_bias                     (1,1,1,48) (266)    
                                                                           O: conv2d_3_output                   (1,64,64,48) (100)  
-------------------------------------------------------------------------------------------------------------------------------------
5      conv2d_5_pad_before     4    pad                 0         0        I: conv2d_3_output                   (1,64,64,48) (100)  
                                                                           O: conv2d_5_pad_before_output        (1,65,65,48) (102)  
-------------------------------------------------------------------------------------------------------------------------------------
6      conv2d_5                5    conv2d              442416    624      I: conv2d_5_pad_before_output        (1,65,65,48) (102)  
                                                                           S: conv2d_5_scratch0                                     
                                                                           S: conv2d_5_scratch1                                     
                                                                           W: conv2d_5_weights                  (48,1,3,3) (268)    
                                                                           W: conv2d_5_bias                     (1,1,1,48) (270)    
                                                                           O: conv2d_5_output                   (1,32,32,48) (104)  
-------------------------------------------------------------------------------------------------------------------------------------
7      conv2d_6                6    conv2d              393224    416      I: conv2d_5_output                   (1,32,32,48) (104)  
                                                                           S: conv2d_6_scratch0                                     
                                                                           W: conv2d_6_weights                  (48,8,1,1) (272)    
                                                                           W: conv2d_6_bias                     (1,1,1,8) (274)     
                                                                           O: conv2d_6_output                   (1,32,32,8) (106)   
-------------------------------------------------------------------------------------------------------------------------------------
8      conv2d_7                7    conv2d              393264    576      I: conv2d_6_output                   (1,32,32,8) (106)   
                                                                           S: conv2d_7_scratch0                                     
                                                                           S: conv2d_7_scratch1                                     
                                                                           W: conv2d_7_weights                  (8,48,1,1) (276)    
                                                                           W: conv2d_7_bias                     (1,1,1,48) (0)      
                                                                           O: conv2d_7_output                   (1,32,32,48) (108)  
-------------------------------------------------------------------------------------------------------------------------------------
9      conv2d_8_pad_before     8    pad                 0         0        I: conv2d_7_output                   (1,32,32,48) (108)  
                                                                           O: conv2d_8_pad_before_output        (1,34,34,48) (110)  
-------------------------------------------------------------------------------------------------------------------------------------
10     conv2d_8                8    conv2d              442416    624      I: conv2d_8_pad_before_output        (1,34,34,48) (110)  
                                                                           S: conv2d_8_scratch0                                     
                                                                           S: conv2d_8_scratch1                                     
                                                                           W: conv2d_8_weights                  (48,1,3,3) (2)      
                                                                           W: conv2d_8_bias                     (1,1,1,48) (3)      
                                                                           O: conv2d_8_output                   (1,32,32,48) (112)  
-------------------------------------------------------------------------------------------------------------------------------------
11     conv2d_9                9    conv2d              393224    416      I: conv2d_8_output                   (1,32,32,48) (112)  
                                                                           S: conv2d_9_scratch0                                     
                                                                           W: conv2d_9_weights                  (48,8,1,1) (6)      
                                                                           W: conv2d_9_bias                     (1,1,1,8) (7)       
                                                                           O: conv2d_9_output                   (1,32,32,8) (114)   
-------------------------------------------------------------------------------------------------------------------------------------
12     eltwise_10              10   eltwise_integer     8192      0        I: conv2d_6_output                   (1,32,32,8) (106)   
                                                                           I: conv2d_9_output                   (1,32,32,8) (114)   
                                                                           O: eltwise_10_output                 (1,32,32,8) (116)   
-------------------------------------------------------------------------------------------------------------------------------------
13     conv2d_11               11   conv2d              393264    576      I: eltwise_10_output                 (1,32,32,8) (116)   
                                                                           S: conv2d_11_scratch0                                    
                                                                           S: conv2d_11_scratch1                                    
                                                                           W: conv2d_11_weights                 (8,48,1,1) (10)     
                                                                           W: conv2d_11_bias                    (1,1,1,48) (11)     
                                                                           O: conv2d_11_output                  (1,32,32,48) (118)  
-------------------------------------------------------------------------------------------------------------------------------------
14     conv2d_13_pad_before    12   pad                 0         0        I: conv2d_11_output                  (1,32,32,48) (118)  
                                                                           O: conv2d_13_pad_before_output       (1,33,33,48) (120)  
-------------------------------------------------------------------------------------------------------------------------------------
15     conv2d_13               13   conv2d              110640    624      I: conv2d_13_pad_before_output       (1,33,33,48) (120)  
                                                                           S: conv2d_13_scratch0                                    
                                                                           S: conv2d_13_scratch1                                    
                                                                           W: conv2d_13_weights                 (48,1,3,3) (13)     
                                                                           W: conv2d_13_bias                    (1,1,1,48) (15)     
                                                                           O: conv2d_13_output                  (1,16,16,48) (122)  
-------------------------------------------------------------------------------------------------------------------------------------
16     conv2d_14               14   conv2d              196624    832      I: conv2d_13_output                  (1,16,16,48) (122)  
                                                                           S: conv2d_14_scratch0                                    
                                                                           W: conv2d_14_weights                 (48,16,1,1) (17)    
                                                                           W: conv2d_14_bias                    (1,1,1,16) (19)     
                                                                           O: conv2d_14_output                  (1,16,16,16) (124)  
-------------------------------------------------------------------------------------------------------------------------------------
17     conv2d_15               15   conv2d              393312    1920     I: conv2d_14_output                  (1,16,16,16) (124)  
                                                                           S: conv2d_15_scratch0                                    
                                                                           S: conv2d_15_scratch1                                    
                                                                           W: conv2d_15_weights                 (16,96,1,1) (21)    
                                                                           W: conv2d_15_bias                    (1,1,1,96) (23)     
                                                                           O: conv2d_15_output                  (1,16,16,96) (126)  
-------------------------------------------------------------------------------------------------------------------------------------
18     conv2d_16_pad_before    16   pad                 0         0        I: conv2d_15_output                  (1,16,16,96) (126)  
                                                                           O: conv2d_16_pad_before_output       (1,18,18,96) (128)  
-------------------------------------------------------------------------------------------------------------------------------------
19     conv2d_16               16   conv2d              221280    1248     I: conv2d_16_pad_before_output       (1,18,18,96) (128)  
                                                                           S: conv2d_16_scratch0                                    
                                                                           S: conv2d_16_scratch1                                    
                                                                           W: conv2d_16_weights                 (96,1,3,3) (25)     
                                                                           W: conv2d_16_bias                    (1,1,1,96) (27)     
                                                                           O: conv2d_16_output                  (1,16,16,96) (130)  
-------------------------------------------------------------------------------------------------------------------------------------
20     conv2d_17               17   conv2d              393232    1600     I: conv2d_16_output                  (1,16,16,96) (130)  
                                                                           S: conv2d_17_scratch0                                    
                                                                           W: conv2d_17_weights                 (96,16,1,1) (29)    
                                                                           W: conv2d_17_bias                    (1,1,1,16) (31)     
                                                                           O: conv2d_17_output                  (1,16,16,16) (132)  
-------------------------------------------------------------------------------------------------------------------------------------
21     eltwise_18              18   eltwise_integer     4096      0        I: conv2d_14_output                  (1,16,16,16) (124)  
                                                                           I: conv2d_17_output                  (1,16,16,16) (132)  
                                                                           O: eltwise_18_output                 (1,16,16,16) (134)  
-------------------------------------------------------------------------------------------------------------------------------------
22     conv2d_19               19   conv2d              393312    1920     I: eltwise_18_output                 (1,16,16,16) (134)  
                                                                           S: conv2d_19_scratch0                                    
                                                                           S: conv2d_19_scratch1                                    
                                                                           W: conv2d_19_weights                 (16,96,1,1) (33)    
                                                                           W: conv2d_19_bias                    (1,1,1,96) (35)     
                                                                           O: conv2d_19_output                  (1,16,16,96) (135)  
-------------------------------------------------------------------------------------------------------------------------------------
23     conv2d_20_pad_before    20   pad                 0         0        I: conv2d_19_output                  (1,16,16,96) (135)  
                                                                           O: conv2d_20_pad_before_output       (1,18,18,96) (137)  
-------------------------------------------------------------------------------------------------------------------------------------
24     conv2d_20               20   conv2d              221280    1248     I: conv2d_20_pad_before_output       (1,18,18,96) (137)  
                                                                           S: conv2d_20_scratch0                                    
                                                                           S: conv2d_20_scratch1                                    
                                                                           W: conv2d_20_weights                 (96,1,3,3) (37)     
                                                                           W: conv2d_20_bias                    (1,1,1,96) (39)     
                                                                           O: conv2d_20_output                  (1,16,16,96) (138)  
-------------------------------------------------------------------------------------------------------------------------------------
25     conv2d_21               21   conv2d              393232    1600     I: conv2d_20_output                  (1,16,16,96) (138)  
                                                                           S: conv2d_21_scratch0                                    
                                                                           W: conv2d_21_weights                 (96,16,1,1) (41)    
                                                                           W: conv2d_21_bias                    (1,1,1,16) (43)     
                                                                           O: conv2d_21_output                  (1,16,16,16) (140)  
-------------------------------------------------------------------------------------------------------------------------------------
26     eltwise_22              22   eltwise_integer     4096      0        I: eltwise_18_output                 (1,16,16,16) (134)  
                                                                           I: conv2d_21_output                  (1,16,16,16) (140)  
                                                                           O: eltwise_22_output                 (1,16,16,16) (141)  
-------------------------------------------------------------------------------------------------------------------------------------
27     conv2d_23               23   conv2d              393312    1920     I: eltwise_22_output                 (1,16,16,16) (141)  
                                                                           S: conv2d_23_scratch0                                    
                                                                           S: conv2d_23_scratch1                                    
                                                                           W: conv2d_23_weights                 (16,96,1,1) (44)    
                                                                           W: conv2d_23_bias                    (1,1,1,96) (47)     
                                                                           O: conv2d_23_output                  (1,16,16,96) (143)  
-------------------------------------------------------------------------------------------------------------------------------------
28     conv2d_25_pad_before    24   pad                 0         0        I: conv2d_23_output                  (1,16,16,96) (143)  
                                                                           O: conv2d_25_pad_before_output       (1,17,17,96) (144)  
-------------------------------------------------------------------------------------------------------------------------------------
29     conv2d_25               25   conv2d              55392     1248     I: conv2d_25_pad_before_output       (1,17,17,96) (144)  
                                                                           S: conv2d_25_scratch0                                    
                                                                           S: conv2d_25_scratch1                                    
                                                                           W: conv2d_25_weights                 (96,1,3,3) (48)     
                                                                           W: conv2d_25_bias                    (1,1,1,96) (51)     
                                                                           O: conv2d_25_output                  (1,8,8,96) (146)    
-------------------------------------------------------------------------------------------------------------------------------------
30     conv2d_26               26   conv2d              147480    2400     I: conv2d_25_output                  (1,8,8,96) (146)    
                                                                           S: conv2d_26_scratch0                                    
                                                                           W: conv2d_26_weights                 (96,24,1,1) (52)    
                                                                           W: conv2d_26_bias                    (1,1,1,24) (54)     
                                                                           O: conv2d_26_output                  (1,8,8,24) (147)    
-------------------------------------------------------------------------------------------------------------------------------------
31     conv2d_27               27   conv2d              221328    4032     I: conv2d_26_output                  (1,8,8,24) (147)    
                                                                           S: conv2d_27_scratch0                                    
                                                                           S: conv2d_27_scratch1                                    
                                                                           W: conv2d_27_weights                 (24,144,1,1) (56)   
                                                                           W: conv2d_27_bias                    (1,1,1,144) (58)    
                                                                           O: conv2d_27_output                  (1,8,8,144) (149)   
-------------------------------------------------------------------------------------------------------------------------------------
32     conv2d_28_pad_before    28   pad                 0         0        I: conv2d_27_output                  (1,8,8,144) (149)   
                                                                           O: conv2d_28_pad_before_output       (1,10,10,144) (150) 
-------------------------------------------------------------------------------------------------------------------------------------
33     conv2d_28               28   conv2d              83088     1872     I: conv2d_28_pad_before_output       (1,10,10,144) (150) 
                                                                           S: conv2d_28_scratch0                                    
                                                                           S: conv2d_28_scratch1                                    
                                                                           W: conv2d_28_weights                 (144,1,3,3) (60)    
                                                                           W: conv2d_28_bias                    (1,1,1,144) (62)    
                                                                           O: conv2d_28_output                  (1,8,8,144) (152)   
-------------------------------------------------------------------------------------------------------------------------------------
34     conv2d_29               29   conv2d              221208    3552     I: conv2d_28_output                  (1,8,8,144) (152)   
                                                                           S: conv2d_29_scratch0                                    
                                                                           W: conv2d_29_weights                 (144,24,1,1) (64)   
                                                                           W: conv2d_29_bias                    (1,1,1,24) (66)     
                                                                           O: conv2d_29_output                  (1,8,8,24) (153)    
-------------------------------------------------------------------------------------------------------------------------------------
35     eltwise_30              30   eltwise_integer     1536      0        I: conv2d_26_output                  (1,8,8,24) (147)    
                                                                           I: conv2d_29_output                  (1,8,8,24) (153)    
                                                                           O: eltwise_30_output                 (1,8,8,24) (155)    
-------------------------------------------------------------------------------------------------------------------------------------
36     conv2d_31               31   conv2d              221328    4032     I: eltwise_30_output                 (1,8,8,24) (155)    
                                                                           S: conv2d_31_scratch0                                    
                                                                           S: conv2d_31_scratch1                                    
                                                                           W: conv2d_31_weights                 (24,144,1,1) (68)   
                                                                           W: conv2d_31_bias                    (1,1,1,144) (70)    
                                                                           O: conv2d_31_output                  (1,8,8,144) (156)   
-------------------------------------------------------------------------------------------------------------------------------------
37     conv2d_32_pad_before    32   pad                 0         0        I: conv2d_31_output                  (1,8,8,144) (156)   
                                                                           O: conv2d_32_pad_before_output       (1,10,10,144) (158) 
-------------------------------------------------------------------------------------------------------------------------------------
38     conv2d_32               32   conv2d              83088     1872     I: conv2d_32_pad_before_output       (1,10,10,144) (158) 
                                                                           S: conv2d_32_scratch0                                    
                                                                           S: conv2d_32_scratch1                                    
                                                                           W: conv2d_32_weights                 (144,1,3,3) (72)    
                                                                           W: conv2d_32_bias                    (1,1,1,144) (74)    
                                                                           O: conv2d_32_output                  (1,8,8,144) (159)   
-------------------------------------------------------------------------------------------------------------------------------------
39     conv2d_33               33   conv2d              221208    3552     I: conv2d_32_output                  (1,8,8,144) (159)   
                                                                           S: conv2d_33_scratch0                                    
                                                                           W: conv2d_33_weights                 (144,24,1,1) (76)   
                                                                           W: conv2d_33_bias                    (1,1,1,24) (78)     
                                                                           O: conv2d_33_output                  (1,8,8,24) (161)    
-------------------------------------------------------------------------------------------------------------------------------------
40     eltwise_34              34   eltwise_integer     1536      0        I: eltwise_30_output                 (1,8,8,24) (155)    
                                                                           I: conv2d_33_output                  (1,8,8,24) (161)    
                                                                           O: eltwise_34_output                 (1,8,8,24) (162)    
-------------------------------------------------------------------------------------------------------------------------------------
41     conv2d_35               35   conv2d              221328    4032     I: eltwise_34_output                 (1,8,8,24) (162)    
                                                                           S: conv2d_35_scratch0                                    
                                                                           S: conv2d_35_scratch1                                    
                                                                           W: conv2d_35_weights                 (24,144,1,1) (80)   
                                                                           W: conv2d_35_bias                    (1,1,1,144) (82)    
                                                                           O: conv2d_35_output                  (1,8,8,144) (164)   
-------------------------------------------------------------------------------------------------------------------------------------
42     conv2d_36_pad_before    36   pad                 0         0        I: conv2d_35_output                  (1,8,8,144) (164)   
                                                                           O: conv2d_36_pad_before_output       (1,10,10,144) (165) 
-------------------------------------------------------------------------------------------------------------------------------------
43     conv2d_36               36   conv2d              83088     1872     I: conv2d_36_pad_before_output       (1,10,10,144) (165) 
                                                                           S: conv2d_36_scratch0                                    
                                                                           S: conv2d_36_scratch1                                    
                                                                           W: conv2d_36_weights                 (144,1,3,3) (84)    
                                                                           W: conv2d_36_bias                    (1,1,1,144) (85)    
                                                                           O: conv2d_36_output                  (1,8,8,144) (167)   
-------------------------------------------------------------------------------------------------------------------------------------
44     conv2d_37               37   conv2d              221208    3552     I: conv2d_36_output                  (1,8,8,144) (167)   
                                                                           S: conv2d_37_scratch0                                    
                                                                           W: conv2d_37_weights                 (144,24,1,1) (88)   
                                                                           W: conv2d_37_bias                    (1,1,1,24) (89)     
                                                                           O: conv2d_37_output                  (1,8,8,24) (168)    
-------------------------------------------------------------------------------------------------------------------------------------
45     eltwise_38              38   eltwise_integer     1536      0        I: eltwise_34_output                 (1,8,8,24) (162)    
                                                                           I: conv2d_37_output                  (1,8,8,24) (168)    
                                                                           O: eltwise_38_output                 (1,8,8,24) (170)    
-------------------------------------------------------------------------------------------------------------------------------------
46     conv2d_39               39   conv2d              221328    4032     I: eltwise_38_output                 (1,8,8,24) (170)    
                                                                           S: conv2d_39_scratch0                                    
                                                                           S: conv2d_39_scratch1                                    
                                                                           W: conv2d_39_weights                 (24,144,1,1) (93)   
                                                                           W: conv2d_39_bias                    (1,1,1,144) (97)    
                                                                           O: conv2d_39_output                  (1,8,8,144) (171)   
-------------------------------------------------------------------------------------------------------------------------------------
47     conv2d_40_pad_before    40   pad                 0         0        I: conv2d_39_output                  (1,8,8,144) (171)   
                                                                           O: conv2d_40_pad_before_output       (1,10,10,144) (173) 
-------------------------------------------------------------------------------------------------------------------------------------
48     conv2d_40               40   conv2d              83088     1872     I: conv2d_40_pad_before_output       (1,10,10,144) (173) 
                                                                           S: conv2d_40_scratch0                                    
                                                                           S: conv2d_40_scratch1                                    
                                                                           W: conv2d_40_weights                 (144,1,3,3) (101)   
                                                                           W: conv2d_40_bias                    (1,1,1,144) (105)   
                                                                           O: conv2d_40_output                  (1,8,8,144) (174)   
-------------------------------------------------------------------------------------------------------------------------------------
49     conv2d_41               41   conv2d              294944    4736     I: conv2d_40_output                  (1,8,8,144) (174)   
                                                                           S: conv2d_41_scratch0                                    
                                                                           W: conv2d_41_weights                 (144,32,1,1) (109)  
                                                                           W: conv2d_41_bias                    (1,1,1,32) (113)    
                                                                           O: conv2d_41_output                  (1,8,8,32) (176)    
-------------------------------------------------------------------------------------------------------------------------------------
50     conv2d_42               42   conv2d              393408    6912     I: conv2d_41_output                  (1,8,8,32) (176)    
                                                                           S: conv2d_42_scratch0                                    
                                                                           S: conv2d_42_scratch1                                    
                                                                           W: conv2d_42_weights                 (32,192,1,1) (117)  
                                                                           W: conv2d_42_bias                    (1,1,1,192) (121)   
                                                                           O: conv2d_42_output                  (1,8,8,192) (177)   
-------------------------------------------------------------------------------------------------------------------------------------
51     conv2d_43_pad_before    43   pad                 0         0        I: conv2d_42_output                  (1,8,8,192) (177)   
                                                                           O: conv2d_43_pad_before_output       (1,10,10,192) (179) 
-------------------------------------------------------------------------------------------------------------------------------------
52     conv2d_43               43   conv2d              110784    2496     I: conv2d_43_pad_before_output       (1,10,10,192) (179) 
                                                                           S: conv2d_43_scratch0                                    
                                                                           S: conv2d_43_scratch1                                    
                                                                           W: conv2d_43_weights                 (192,1,3,3) (125)   
                                                                           W: conv2d_43_bias                    (1,1,1,192) (129)   
                                                                           O: conv2d_43_output                  (1,8,8,192) (180)   
-------------------------------------------------------------------------------------------------------------------------------------
53     conv2d_44               44   conv2d              393248    6272     I: conv2d_43_output                  (1,8,8,192) (180)   
                                                                           S: conv2d_44_scratch0                                    
                                                                           W: conv2d_44_weights                 (192,32,1,1) (133)  
                                                                           W: conv2d_44_bias                    (1,1,1,32) (136)    
                                                                           O: conv2d_44_output                  (1,8,8,32) (182)    
-------------------------------------------------------------------------------------------------------------------------------------
54     eltwise_45              45   eltwise_integer     2048      0        I: conv2d_41_output                  (1,8,8,32) (176)    
                                                                           I: conv2d_44_output                  (1,8,8,32) (182)    
                                                                           O: eltwise_45_output                 (1,8,8,32) (183)    
-------------------------------------------------------------------------------------------------------------------------------------
55     conv2d_46               46   conv2d              393408    6912     I: eltwise_45_output                 (1,8,8,32) (183)    
                                                                           S: conv2d_46_scratch0                                    
                                                                           S: conv2d_46_scratch1                                    
                                                                           W: conv2d_46_weights                 (32,192,1,1) (139)  
                                                                           W: conv2d_46_bias                    (1,1,1,192) (142)   
                                                                           O: conv2d_46_output                  (1,8,8,192) (185)   
-------------------------------------------------------------------------------------------------------------------------------------
56     conv2d_47_pad_before    47   pad                 0         0        I: conv2d_46_output                  (1,8,8,192) (185)   
                                                                           O: conv2d_47_pad_before_output       (1,10,10,192) (186) 
-------------------------------------------------------------------------------------------------------------------------------------
57     conv2d_47               47   conv2d              110784    2496     I: conv2d_47_pad_before_output       (1,10,10,192) (186) 
                                                                           S: conv2d_47_scratch0                                    
                                                                           S: conv2d_47_scratch1                                    
                                                                           W: conv2d_47_weights                 (192,1,3,3) (145)   
                                                                           W: conv2d_47_bias                    (1,1,1,192) (148)   
                                                                           O: conv2d_47_output                  (1,8,8,192) (188)   
-------------------------------------------------------------------------------------------------------------------------------------
58     conv2d_48               48   conv2d              393248    6272     I: conv2d_47_output                  (1,8,8,192) (188)   
                                                                           S: conv2d_48_scratch0                                    
                                                                           W: conv2d_48_weights                 (192,32,1,1) (151)  
                                                                           W: conv2d_48_bias                    (1,1,1,32) (154)    
                                                                           O: conv2d_48_output                  (1,8,8,32) (189)    
-------------------------------------------------------------------------------------------------------------------------------------
59     eltwise_49              49   eltwise_integer     2048      0        I: eltwise_45_output                 (1,8,8,32) (183)    
                                                                           I: conv2d_48_output                  (1,8,8,32) (189)    
                                                                           O: eltwise_49_output                 (1,8,8,32) (191)    
-------------------------------------------------------------------------------------------------------------------------------------
60     conv2d_50               50   conv2d              393408    6912     I: eltwise_49_output                 (1,8,8,32) (191)    
                                                                           S: conv2d_50_scratch0                                    
                                                                           S: conv2d_50_scratch1                                    
                                                                           W: conv2d_50_weights                 (32,192,1,1) (157)  
                                                                           W: conv2d_50_bias                    (1,1,1,192) (160)   
                                                                           O: conv2d_50_output                  (1,8,8,192) (192)   
-------------------------------------------------------------------------------------------------------------------------------------
61     conv2d_52_pad_before    51   pad                 0         0        I: conv2d_50_output                  (1,8,8,192) (192)   
                                                                           O: conv2d_52_pad_before_output       (1,9,9,192) (194)   
-------------------------------------------------------------------------------------------------------------------------------------
62     conv2d_52               52   conv2d              27840     2496     I: conv2d_52_pad_before_output       (1,9,9,192) (194)   
                                                                           S: conv2d_52_scratch0                                    
                                                                           S: conv2d_52_scratch1                                    
                                                                           W: conv2d_52_weights                 (192,1,3,3) (163)   
                                                                           W: conv2d_52_bias                    (1,1,1,192) (166)   
                                                                           O: conv2d_52_output                  (1,4,4,192) (195)   
-------------------------------------------------------------------------------------------------------------------------------------
63     conv2d_53               53   conv2d              172088    10976    I: conv2d_52_output                  (1,4,4,192) (195)   
                                                                           S: conv2d_53_scratch0                                    
                                                                           W: conv2d_53_weights                 (192,56,1,1) (169)  
                                                                           W: conv2d_53_bias                    (1,1,1,56) (172)    
                                                                           O: conv2d_53_output                  (1,4,4,56) (197)    
-------------------------------------------------------------------------------------------------------------------------------------
64     conv2d_54               54   conv2d              301392    20160    I: conv2d_53_output                  (1,4,4,56) (197)    
                                                                           S: conv2d_54_scratch0                                    
                                                                           S: conv2d_54_scratch1                                    
                                                                           W: conv2d_54_weights                 (56,336,1,1) (175)  
                                                                           W: conv2d_54_bias                    (1,1,1,336) (178)   
                                                                           O: conv2d_54_output                  (1,4,4,336) (198)   
-------------------------------------------------------------------------------------------------------------------------------------
65     conv2d_55_pad_before    55   pad                 0         0        I: conv2d_54_output                  (1,4,4,336) (198)   
                                                                           O: conv2d_55_pad_before_output       (1,6,6,336) (200)   
-------------------------------------------------------------------------------------------------------------------------------------
66     conv2d_55               55   conv2d              48720     4368     I: conv2d_55_pad_before_output       (1,6,6,336) (200)   
                                                                           S: conv2d_55_scratch0                                    
                                                                           S: conv2d_55_scratch1                                    
                                                                           W: conv2d_55_weights                 (336,1,3,3) (181)   
                                                                           W: conv2d_55_bias                    (1,1,1,336) (184)   
                                                                           O: conv2d_55_output                  (1,4,4,336) (201)   
-------------------------------------------------------------------------------------------------------------------------------------
67     conv2d_56               56   conv2d              301112    19040    I: conv2d_55_output                  (1,4,4,336) (201)   
                                                                           S: conv2d_56_scratch0                                    
                                                                           W: conv2d_56_weights                 (336,56,1,1) (187)  
                                                                           W: conv2d_56_bias                    (1,1,1,56) (190)    
                                                                           O: conv2d_56_output                  (1,4,4,56) (203)    
-------------------------------------------------------------------------------------------------------------------------------------
68     eltwise_57              57   eltwise_integer     896       0        I: conv2d_53_output                  (1,4,4,56) (197)    
                                                                           I: conv2d_56_output                  (1,4,4,56) (203)    
                                                                           O: eltwise_57_output                 (1,4,4,56) (204)    
-------------------------------------------------------------------------------------------------------------------------------------
69     conv2d_58               58   conv2d              301392    20160    I: eltwise_57_output                 (1,4,4,56) (204)    
                                                                           S: conv2d_58_scratch0                                    
                                                                           S: conv2d_58_scratch1                                    
                                                                           W: conv2d_58_weights                 (56,336,1,1) (193)  
                                                                           W: conv2d_58_bias                    (1,1,1,336) (196)   
                                                                           O: conv2d_58_output                  (1,4,4,336) (206)   
-------------------------------------------------------------------------------------------------------------------------------------
70     conv2d_59_pad_before    59   pad                 0         0        I: conv2d_58_output                  (1,4,4,336) (206)   
                                                                           O: conv2d_59_pad_before_output       (1,6,6,336) (207)   
-------------------------------------------------------------------------------------------------------------------------------------
71     conv2d_59               59   conv2d              48720     4368     I: conv2d_59_pad_before_output       (1,6,6,336) (207)   
                                                                           S: conv2d_59_scratch0                                    
                                                                           S: conv2d_59_scratch1                                    
                                                                           W: conv2d_59_weights                 (336,1,3,3) (199)   
                                                                           W: conv2d_59_bias                    (1,1,1,336) (202)   
                                                                           O: conv2d_59_output                  (1,4,4,336) (209)   
-------------------------------------------------------------------------------------------------------------------------------------
72     conv2d_60               60   conv2d              301112    19040    I: conv2d_59_output                  (1,4,4,336) (209)   
                                                                           S: conv2d_60_scratch0                                    
                                                                           W: conv2d_60_weights                 (336,56,1,1) (205)  
                                                                           W: conv2d_60_bias                    (1,1,1,56) (208)    
                                                                           O: conv2d_60_output                  (1,4,4,56) (210)    
-------------------------------------------------------------------------------------------------------------------------------------
73     eltwise_61              61   eltwise_integer     896       0        I: eltwise_57_output                 (1,4,4,56) (204)    
                                                                           I: conv2d_60_output                  (1,4,4,56) (210)    
                                                                           O: eltwise_61_output                 (1,4,4,56) (212)    
-------------------------------------------------------------------------------------------------------------------------------------
74     conv2d_62               62   conv2d              301392    20160    I: eltwise_61_output                 (1,4,4,56) (212)    
                                                                           S: conv2d_62_scratch0                                    
                                                                           S: conv2d_62_scratch1                                    
                                                                           W: conv2d_62_weights                 (56,336,1,1) (211)  
                                                                           W: conv2d_62_bias                    (1,1,1,336) (214)   
                                                                           O: conv2d_62_output                  (1,4,4,336) (213)   
-------------------------------------------------------------------------------------------------------------------------------------
75     conv2d_63_pad_before    63   pad                 0         0        I: conv2d_62_output                  (1,4,4,336) (213)   
                                                                           O: conv2d_63_pad_before_output       (1,6,6,336) (215)   
-------------------------------------------------------------------------------------------------------------------------------------
76     conv2d_63               63   conv2d              48720     4368     I: conv2d_63_pad_before_output       (1,6,6,336) (215)   
                                                                           S: conv2d_63_scratch0                                    
                                                                           S: conv2d_63_scratch1                                    
                                                                           W: conv2d_63_weights                 (336,1,3,3) (217)   
                                                                           W: conv2d_63_bias                    (1,1,1,336) (220)   
                                                                           O: conv2d_63_output                  (1,4,4,336) (216)   
-------------------------------------------------------------------------------------------------------------------------------------
77     conv2d_64               64   conv2d              602224    38080    I: conv2d_63_output                  (1,4,4,336) (216)   
                                                                           S: conv2d_64_scratch0                                    
                                                                           W: conv2d_64_weights                 (336,112,1,1) (223) 
                                                                           W: conv2d_64_bias                    (1,1,1,112) (226)   
                                                                           O: conv2d_64_output                  (1,4,4,112) (218)   
-------------------------------------------------------------------------------------------------------------------------------------
78     conv2d_65               65   conv2d              2295040   148480   I: conv2d_64_output                  (1,4,4,112) (218)   
                                                                           S: conv2d_65_scratch0                                    
                                                                           S: conv2d_65_scratch1                                    
                                                                           W: conv2d_65_weights                 (112,1280,1,1) (227)
                                                                           W: conv2d_65_bias                    (1,1,1,1280) (228)  
                                                                           O: conv2d_65_output                  (1,4,4,1280) (219)  
-------------------------------------------------------------------------------------------------------------------------------------
79     pool_66                 66   pool                20480     0        I: conv2d_65_output                  (1,4,4,1280) (219)  
                                                                           O: pool_66_output                    (1,1,1,1280) (221)  
-------------------------------------------------------------------------------------------------------------------------------------
80     dense_67                67   dense               6405      6420     I: pool_66_output                    (1,1,1,1280) (221)  
                                                                           S: dense_67_scratch0                                     
                                                                           W: dense_67_weights                  (1280,1,1,5) (229)  
                                                                           W: dense_67_bias                     (1,1,1,5) (230)     
                                                                           O: dense_67_output                   (1,1,1,5) (222)     
-------------------------------------------------------------------------------------------------------------------------------------
81     dense_67_0_conversion   67   converter           10        0        I: dense_67_output                   (1,1,1,5) (222)     
                                                                           O: dense_67_0_conversion_output      (1,1,1,5) (224)     
-------------------------------------------------------------------------------------------------------------------------------------
82     nl_68                   68   nl                  75        0        I: dense_67_0_conversion_output      (1,1,1,5) (224)     
                                                                           O: nl_68_output                      (1,1,1,5) (225)     
-------------------------------------------------------------------------------------------------------------------------------------



Number of operations per c-layer
-----------------------------------------------------------------------------------------------------------
c_id    m_id   name (type)                         #op (type)                      #param (sparsity)      
-----------------------------------------------------------------------------------------------------------
0       0      conv2d_0 (optimized_conv2d)               1,769,488 (smul_s8_s8)               448 (0.4888)
1       1      conv2d_1_pad_before (pad)                         0 (smul_s8_s8)                           
2       1      conv2d_1 (conv2d)                           589,840 (smul_s8_s8)               160 (0.0375)
3       2      conv2d_2 (conv2d)                           524,296 (smul_s8_s8)               136 (0.4926)
4       3      conv2d_3 (conv2d)                         1,572,912 (smul_s8_s8)               432 (0.1088)
5       4      conv2d_5_pad_before (pad)                         0 (smul_s8_s8)                           
6       5      conv2d_5 (conv2d)                           442,416 (smul_s8_s8)               480 (0.0062)
7       6      conv2d_6 (conv2d)                           393,224 (smul_s8_s8)               392 (0.0969)
8       7      conv2d_7 (conv2d)                           393,264 (smul_s8_s8)               432 (0.0486)
9       8      conv2d_8_pad_before (pad)                         0 (smul_s8_s8)                           
10      8      conv2d_8 (conv2d)                           442,416 (smul_s8_s8)               480 (0.0229)
11      9      conv2d_9 (conv2d)                           393,224 (smul_s8_s8)               392 (0.0561)
12      10     eltwise_10 (eltwise_integer)                  8,192 (smul_s8_s8)                           
13      11     conv2d_11 (conv2d)                          393,264 (smul_s8_s8)               432 (0.0162)
14      12     conv2d_13_pad_before (pad)                        0 (smul_s8_s8)                           
15      13     conv2d_13 (conv2d)                          110,640 (smul_s8_s8)               480 (0.0000)
16      14     conv2d_14 (conv2d)                          196,624 (smul_s8_s8)               784 (0.0179)
17      15     conv2d_15 (conv2d)                          393,312 (smul_s8_s8)             1,632 (0.0080)
18      16     conv2d_16_pad_before (pad)                        0 (smul_s8_s8)                           
19      16     conv2d_16 (conv2d)                          221,280 (smul_s8_s8)               960 (0.0083)
20      17     conv2d_17 (conv2d)                          393,232 (smul_s8_s8)             1,552 (0.0122)
21      18     eltwise_18 (eltwise_integer)                  4,096 (smul_s8_s8)                           
22      19     conv2d_19 (conv2d)                          393,312 (smul_s8_s8)             1,632 (0.0067)
23      20     conv2d_20_pad_before (pad)                        0 (smul_s8_s8)                           
24      20     conv2d_20 (conv2d)                          221,280 (smul_s8_s8)               960 (0.0042)
25      21     conv2d_21 (conv2d)                          393,232 (smul_s8_s8)             1,552 (0.0103)
26      22     eltwise_22 (eltwise_integer)                  4,096 (smul_s8_s8)                           
27      23     conv2d_23 (conv2d)                          393,312 (smul_s8_s8)             1,632 (0.0080)
28      24     conv2d_25_pad_before (pad)                        0 (smul_s8_s8)                           
29      25     conv2d_25 (conv2d)                           55,392 (smul_s8_s8)               960 (0.0000)
30      26     conv2d_26 (conv2d)                          147,480 (smul_s8_s8)             2,328 (0.0150)
31      27     conv2d_27 (conv2d)                          221,328 (smul_s8_s8)             3,600 (0.0117)
32      28     conv2d_28_pad_before (pad)                        0 (smul_s8_s8)                           
33      28     conv2d_28 (conv2d)                           83,088 (smul_s8_s8)             1,440 (0.0104)
34      29     conv2d_29 (conv2d)                          221,208 (smul_s8_s8)             3,480 (0.0138)
35      30     eltwise_30 (eltwise_integer)                  1,536 (smul_s8_s8)                           
36      31     conv2d_31 (conv2d)                          221,328 (smul_s8_s8)             3,600 (0.0089)
37      32     conv2d_32_pad_before (pad)                        0 (smul_s8_s8)                           
38      32     conv2d_32 (conv2d)                           83,088 (smul_s8_s8)             1,440 (0.0097)
39      33     conv2d_33 (conv2d)                          221,208 (smul_s8_s8)             3,480 (0.0164)
40      34     eltwise_34 (eltwise_integer)                  1,536 (smul_s8_s8)                           
41      35     conv2d_35 (conv2d)                          221,328 (smul_s8_s8)             3,600 (0.0078)
42      36     conv2d_36_pad_before (pad)                        0 (smul_s8_s8)                           
43      36     conv2d_36 (conv2d)                           83,088 (smul_s8_s8)             1,440 (0.0062)
44      37     conv2d_37 (conv2d)                          221,208 (smul_s8_s8)             3,480 (0.0152)
45      38     eltwise_38 (eltwise_integer)                  1,536 (smul_s8_s8)                           
46      39     conv2d_39 (conv2d)                          221,328 (smul_s8_s8)             3,600 (0.0097)
47      40     conv2d_40_pad_before (pad)                        0 (smul_s8_s8)                           
48      40     conv2d_40 (conv2d)                           83,088 (smul_s8_s8)             1,440 (0.0188)
49      41     conv2d_41 (conv2d)                          294,944 (smul_s8_s8)             4,640 (0.0200)
50      42     conv2d_42 (conv2d)                          393,408 (smul_s8_s8)             6,336 (0.0080)
51      43     conv2d_43_pad_before (pad)                        0 (smul_s8_s8)                           
52      43     conv2d_43 (conv2d)                          110,784 (smul_s8_s8)             1,920 (0.0047)
53      44     conv2d_44 (conv2d)                          393,248 (smul_s8_s8)             6,176 (0.0096)
54      45     eltwise_45 (eltwise_integer)                  2,048 (smul_s8_s8)                           
55      46     conv2d_46 (conv2d)                          393,408 (smul_s8_s8)             6,336 (0.0088)
56      47     conv2d_47_pad_before (pad)                        0 (smul_s8_s8)                           
57      47     conv2d_47 (conv2d)                          110,784 (smul_s8_s8)             1,920 (0.0042)
58      48     conv2d_48 (conv2d)                          393,248 (smul_s8_s8)             6,176 (0.0115)
59      49     eltwise_49 (eltwise_integer)                  2,048 (smul_s8_s8)                           
60      50     conv2d_50 (conv2d)                          393,408 (smul_s8_s8)             6,336 (0.0107)
61      51     conv2d_52_pad_before (pad)                        0 (smul_s8_s8)                           
62      52     conv2d_52 (conv2d)                           27,840 (smul_s8_s8)             1,920 (0.0000)
63      53     conv2d_53 (conv2d)                          172,088 (smul_s8_s8)            10,808 (0.0126)
64      54     conv2d_54 (conv2d)                          301,392 (smul_s8_s8)            19,152 (0.0092)
65      55     conv2d_55_pad_before (pad)                        0 (smul_s8_s8)                           
66      55     conv2d_55 (conv2d)                           48,720 (smul_s8_s8)             3,360 (0.0060)
67      56     conv2d_56 (conv2d)                          301,112 (smul_s8_s8)            18,872 (0.0122)
68      57     eltwise_57 (eltwise_integer)                    896 (smul_s8_s8)                           
69      58     conv2d_58 (conv2d)                          301,392 (smul_s8_s8)            19,152 (0.0085)
70      59     conv2d_59_pad_before (pad)                        0 (smul_s8_s8)                           
71      59     conv2d_59 (conv2d)                           48,720 (smul_s8_s8)             3,360 (0.0057)
72      60     conv2d_60 (conv2d)                          301,112 (smul_s8_s8)            18,872 (0.0132)
73      61     eltwise_61 (eltwise_integer)                    896 (smul_s8_s8)                           
74      62     conv2d_62 (conv2d)                          301,392 (smul_s8_s8)            19,152 (0.0093)
75      63     conv2d_63_pad_before (pad)                        0 (smul_s8_s8)                           
76      63     conv2d_63 (conv2d)                           48,720 (smul_s8_s8)             3,360 (0.0012)
77      64     conv2d_64 (conv2d)                          602,224 (smul_s8_s8)            37,744 (0.0113)
78      65     conv2d_65 (conv2d)                        2,295,040 (smul_s8_s8)           144,640 (0.0096)
79      66     pool_66 (pool)                               20,480 (op_s8_s8)                             
80      67     dense_67 (dense)                              6,405 (smul_s8_s8)             6,405 (0.0131)
81      67     dense_67_0_conversion (converter)                10 (smul_s8_f32)                          
82      68     nl_68 (nl)                                       75 (op_f32_f32)                           
-----------------------------------------------------------------------------------------------------------
total                                                   19,001,562                        395,493 (0.0112)

  Number of operation types
  ---------------------------------------------
  smul_s8_s8            18,980,997       99.9%
  op_s8_s8                  20,480        0.1%
  smul_s8_f32                   10        0.0%
  op_f32_f32                    75        0.0%

Complexity report (model)
-----------------------------------------------------------------------------------------------
m_id   name                       c_macc                    c_rom                     c_id    
-----------------------------------------------------------------------------------------------
0      serving_default_input_10   ||||||||||||       9.3%   |                  0.1%   [0]     
1      conv2d_1                   ||||               3.1%   |                  0.0%   [1, 2]  
2      conv2d_2                   ||||               2.8%   |                  0.0%   [3]     
3      conv2d_3                   |||||||||||        8.3%   |                  0.1%   [4]     
4      pad_4                      |                  0.0%   |                  0.0%   [5]     
5      conv2d_5                   |||                2.3%   |                  0.1%   [6]     
6      conv2d_6                   |||                2.1%   |                  0.1%   [7]     
7      conv2d_7                   |||                2.1%   |                  0.1%   [8]     
8      conv2d_8                   |||                2.3%   |                  0.1%   [9, 10] 
9      conv2d_9                   |||                2.1%   |                  0.1%   [11]    
10     eltwise_10                 |                  0.0%   |                  0.0%   [12]    
11     conv2d_11                  |||                2.1%   |                  0.1%   [13]    
12     pad_12                     |                  0.0%   |                  0.0%   [14]    
13     conv2d_13                  |                  0.6%   |                  0.1%   [15]    
14     conv2d_14                  ||                 1.0%   |                  0.2%   [16]    
15     conv2d_15                  |||                2.1%   |                  0.5%   [17]    
16     conv2d_16                  ||                 1.2%   |                  0.3%   [18, 19]
17     conv2d_17                  |||                2.1%   |                  0.4%   [20]    
18     eltwise_18                 |                  0.0%   |                  0.0%   [21]    
19     conv2d_19                  |||                2.1%   |                  0.5%   [22]    
20     conv2d_20                  ||                 1.2%   |                  0.3%   [23, 24]
21     conv2d_21                  |||                2.1%   |                  0.4%   [25]    
22     eltwise_22                 |                  0.0%   |                  0.0%   [26]    
23     conv2d_23                  |||                2.1%   |                  0.5%   [27]    
24     pad_24                     |                  0.0%   |                  0.0%   [28]    
25     conv2d_25                  |                  0.3%   |                  0.3%   [29]    
26     conv2d_26                  |                  0.8%   |                  0.6%   [30]    
27     conv2d_27                  ||                 1.2%   |                  1.0%   [31]    
28     conv2d_28                  |                  0.4%   |                  0.4%   [32, 33]
29     conv2d_29                  ||                 1.2%   |                  0.9%   [34]    
30     eltwise_30                 |                  0.0%   |                  0.0%   [35]    
31     conv2d_31                  ||                 1.2%   |                  1.0%   [36]    
32     conv2d_32                  |                  0.4%   |                  0.4%   [37, 38]
33     conv2d_33                  ||                 1.2%   |                  0.9%   [39]    
34     eltwise_34                 |                  0.0%   |                  0.0%   [40]    
35     conv2d_35                  ||                 1.2%   |                  1.0%   [41]    
36     conv2d_36                  |                  0.4%   |                  0.4%   [42, 43]
37     conv2d_37                  ||                 1.2%   |                  0.9%   [44]    
38     eltwise_38                 |                  0.0%   |                  0.0%   [45]    
39     conv2d_39                  ||                 1.2%   |                  1.0%   [46]    
40     conv2d_40                  |                  0.4%   |                  0.4%   [47, 48]
41     conv2d_41                  ||                 1.6%   |                  1.1%   [49]    
42     conv2d_42                  |||                2.1%   |                  1.7%   [50]    
43     conv2d_43                  |                  0.6%   |                  0.6%   [51, 52]
44     conv2d_44                  |||                2.1%   |                  1.5%   [53]    
45     eltwise_45                 |                  0.0%   |                  0.0%   [54]    
46     conv2d_46                  |||                2.1%   |                  1.7%   [55]    
47     conv2d_47                  |                  0.6%   |                  0.6%   [56, 57]
48     conv2d_48                  |||                2.1%   |                  1.5%   [58]    
49     eltwise_49                 |                  0.0%   |                  0.0%   [59]    
50     conv2d_50                  |||                2.1%   |                  1.7%   [60]    
51     pad_51                     |                  0.0%   |                  0.0%   [61]    
52     conv2d_52                  |                  0.1%   |                  0.6%   [62]    
53     conv2d_53                  ||                 0.9%   ||                 2.6%   [63]    
54     conv2d_54                  ||                 1.6%   |||                4.8%   [64]    
55     conv2d_55                  |                  0.3%   |                  1.0%   [65, 66]
56     conv2d_56                  ||                 1.6%   ||                 4.6%   [67]    
57     eltwise_57                 |                  0.0%   |                  0.0%   [68]    
58     conv2d_58                  ||                 1.6%   |||                4.8%   [69]    
59     conv2d_59                  |                  0.3%   |                  1.0%   [70, 71]
60     conv2d_60                  ||                 1.6%   ||                 4.6%   [72]    
61     eltwise_61                 |                  0.0%   |                  0.0%   [73]    
62     conv2d_62                  ||                 1.6%   |||                4.8%   [74]    
63     conv2d_63                  |                  0.3%   |                  1.0%   [75, 76]
64     conv2d_64                  ||||               3.2%   ||||               9.1%   [77]    
65     conv2d_65                  ||||||||||||||||  12.1%   ||||||||||||||||  35.6%   [78]    
66     pool_66                    |                  0.1%   |                  0.0%   [79]    
67     dense_67                   |                  0.0%   |                  1.5%   [80, 81]
68     nl_68                      |                  0.0%   |                  0.0%   [82]    
-----------------------------------------------------------------------------------------------
macc=19,001,562 weights=416,628 act=207,920 ram_io=0

Generated files (8)
-----------------------------------------------------------------------------------------------------------------------------------------------------------------------------------------------------
C:\Closs\Work\AI\VISION\External_Model_Zoo\external_zoo_poc\image_classification\scripts\deployment\outputs\2022_11_29_15_47_50\inspector_network\workspace\generated\network_config.h
C:\Closs\Work\AI\VISION\External_Model_Zoo\external_zoo_poc\image_classification\scripts\deployment\outputs\2022_11_29_15_47_50\inspector_network\workspace\generated\network.h
C:\Closs\Work\AI\VISION\External_Model_Zoo\external_zoo_poc\image_classification\scripts\deployment\outputs\2022_11_29_15_47_50\inspector_network\workspace\generated\network.c
C:\Closs\Work\AI\VISION\External_Model_Zoo\external_zoo_poc\image_classification\scripts\deployment\outputs\2022_11_29_15_47_50\inspector_network\workspace\generated\network_data_params.h
C:\Closs\Work\AI\VISION\External_Model_Zoo\external_zoo_poc\image_classification\scripts\deployment\outputs\2022_11_29_15_47_50\inspector_network\workspace\generated\network_data_params.c
C:\Closs\Work\AI\VISION\External_Model_Zoo\external_zoo_poc\image_classification\scripts\deployment\outputs\2022_11_29_15_47_50\inspector_network\workspace\generated\network_data.h
C:\Closs\Work\AI\VISION\External_Model_Zoo\external_zoo_poc\image_classification\scripts\deployment\outputs\2022_11_29_15_47_50\inspector_network\workspace\generated\network_data.c
C:\Closs\Work\AI\VISION\External_Model_Zoo\external_zoo_poc\image_classification\scripts\deployment\outputs\2022_11_29_15_47_50\inspector_network\workspace\lib\libai_network.dll
