Neural Network Tools for STM32AI v1.6.0 (STM.ai v7.3.0-RC5)
Created date          : 2023-12-19 15:44:31
Parameters            : generate -m ../pretrained_models/ssd_mobilenetv1/ST_pretrainedmodel_public_dataset/COCO/ssd_mobilenet_v1_0.25_192/ssd_mobilenet_v1_025_192_int8.tflite --output C:\Users\rattingu\STM32CubeIDE\workspace_1.11.0\external_model_zoo\object_detection\src\experiments_outputs\2023_12_19_15_43_37 --workspace C:\Users\rattingu\STM32CubeIDE\workspace_1.11.0\external_model_zoo\object_detection\src\experiments_outputs\2023_12_19_15_43_37 --series stm32h7 --dll --allocate-inputs --allocate-outputs --quiet -O balanced

Exec/report summary (generate)
---------------------------------------------------------------------------------------------------------------------------------------------------------------------------------------------------------------------------------------------------
model file         :   C:\Users\rattingu\STM32CubeIDE\workspace_1.11.0\external_model_zoo\object_detection\pretrained_models\ssd_mobilenetv1\ST_pretrainedmodel_public_dataset\COCO\ssd_mobilenet_v1_0.25_192\ssd_mobilenet_v1_025_192_int8.tflite
type               :   tflite                                                                                                                                                                                                                     
c_name             :   network                                                                                                                                                                                                                    
compression        :   lossless                                                                                                                                                                                                                   
options            :   allocate-inputs, allocate-outputs                                                                                                                                                                                          
optimization       :   balanced                                                                                                                                                                                                                   
target/series      :   stm32h7                                                                                                                                                                                                                    
workspace dir      :   C:\Users\rattingu\STM32CubeIDE\workspace_1.11.0\external_model_zoo\object_detection\src\experiments_outputs\2023_12_19_15_43_37                                                                                            
output dir         :   C:\Users\rattingu\STM32CubeIDE\workspace_1.11.0\external_model_zoo\object_detection\src\experiments_outputs\2023_12_19_15_43_37                                                                                            
model_fmt          :   ss/sa per-channel                                                                                                                                                                                                          
model_name         :   ssd_mobilenet_v1_025_192_int8                                                                                                                                                                                              
model_hash         :   968d7b74aef1036b28cc98e2f78f4bb7                                                                                                                                                                                           
params #           :   436,590 items (438.28 KiB)                                                                                                                                                                                                 
---------------------------------------------------------------------------------------------------------------------------------------------------------------------------------------------------------------------------------------------------
input 1/1          :   'serving_default_input_10' (domain:activations/**default**)                                                                                                                                                                
                   :   110592 items, 108.00 KiB, ai_u8, s=0.00784314, zp=127, (1,192,192,3)                                                                                                                                                       
output 1/3         :   'nl_133' (domain:activations/**default**)                                                                                                                                                                                  
                   :   7660 items, 29.92 KiB, ai_float, float, (1,3830,1,2)                                                                                                                                                                       
output 2/3         :   'conversion_141' (domain:activations/**default**)                                                                                                                                                                          
                   :   15320 items, 59.84 KiB, ai_float, float, (1,3830,1,4)                                                                                                                                                                      
output 3/3         :   'conversion_151' (domain:activations/**default**)                                                                                                                                                                          
                   :   15320 items, 59.84 KiB, ai_float, float, (1,3830,1,4)                                                                                                                                                                      
outputs (total)    :   149.61 KiB                                                                                                                                                                                                                 
macc               :   40,543,058                                                                                                                                                                                                                 
weights (ro)       :   448,800 B (438.28 KiB) (1 segment) / -1,297,560(-74.3%) vs float model                                                                                                                                                     
activations (rw)   :   223,280 B (218.05 KiB) (1 segment) *                                                                                                                                                                                       
ram (total)        :   223,280 B (218.05 KiB) = 223,280 + 0 + 0                                                                                                                                                                                   
---------------------------------------------------------------------------------------------------------------------------------------------------------------------------------------------------------------------------------------------------
(*) 'input'/'output' buffers can be used from the activations buffer

Model name - ssd_mobilenet_v1_025_192_int8 ['serving_default_input_10'] ['nl_133', 'conversion_141', 'conversion_151']
------------------------------------------------------------------------------------------------------------------------------------------------------------------------------------------------------------------------
id    layer (type,original)                        oshape                  param/size      macc        connected to               |   c_size             c_macc              c_type                                    
------------------------------------------------------------------------------------------------------------------------------------------------------------------------------------------------------------------------
0     serving_default_input_10 (Input, )           [b:1,h:192,w:192,c:3]                                                          |                      +221,184(+100.0%)   converter_oi8[2]                          
      conversion_0 (Conversion, QUANTIZE)          [b:1,h:192,w:192,c:3]                   221,184     serving_default_input_10   |                      -221,184(-100.0%)  
------------------------------------------------------------------------------------------------------------------------------------------------------------------------------------------------------------------------
1     conv2d_1 (Conv2D, CONV_2D)                   [b:1,h:96,w:96,c:8]     224/248         1,990,664   conversion_0               |                                          optimized_conv2d_oi8[3]                   
      nl_1_nl (Nonlinearity, CONV_2D)              [b:1,h:96,w:96,c:8]                     73,728      conv2d_1                   |                      -73,728(-100.0%)   
------------------------------------------------------------------------------------------------------------------------------------------------------------------------------------------------------------------------
2     conv2d_2 (Conv2D, DEPTHWISE_CONV_2D)         [b:1,h:96,w:96,c:8]     80/104          663,560     nl_1_nl                    |                                          pad_oi8/conv2d_oi8[4, 5]                  
      nl_2_nl (Nonlinearity, DEPTHWISE_CONV_2D)    [b:1,h:96,w:96,c:8]                     73,728      conv2d_2                   |                      -73,728(-100.0%)   
------------------------------------------------------------------------------------------------------------------------------------------------------------------------------------------------------------------------
3     conv2d_3 (Conv2D, CONV_2D)                   [b:1,h:96,w:96,c:16]    144/192         1,179,664   nl_2_nl                    |                                          conv2d_oi8[6]                             
      nl_3_nl (Nonlinearity, CONV_2D)              [b:1,h:96,w:96,c:16]                    147,456     conv2d_3                   |                      -147,456(-100.0%)  
------------------------------------------------------------------------------------------------------------------------------------------------------------------------------------------------------------------------
4     pad_4 (Pad, PAD)                             [b:1,h:97,w:97,c:16]                                nl_3_nl                    |                                          pad_oi8[7]                                
------------------------------------------------------------------------------------------------------------------------------------------------------------------------------------------------------------------------
5     conv2d_5 (Conv2D, DEPTHWISE_CONV_2D)         [b:1,h:48,w:48,c:16]    160/208         331,792     pad_4                      |                                          conv2d_oi8[8]                             
      nl_5_nl (Nonlinearity, DEPTHWISE_CONV_2D)    [b:1,h:48,w:48,c:16]                    36,864      conv2d_5                   |                      -36,864(-100.0%)   
------------------------------------------------------------------------------------------------------------------------------------------------------------------------------------------------------------------------
6     conv2d_6 (Conv2D, CONV_2D)                   [b:1,h:48,w:48,c:32]    544/640         1,179,680   nl_5_nl                    |                                          conv2d_oi8[9]                             
      nl_6_nl (Nonlinearity, CONV_2D)              [b:1,h:48,w:48,c:32]                    73,728      conv2d_6                   |                      -73,728(-100.0%)   
------------------------------------------------------------------------------------------------------------------------------------------------------------------------------------------------------------------------
7     conv2d_7 (Conv2D, DEPTHWISE_CONV_2D)         [b:1,h:48,w:48,c:32]    320/416         663,584     nl_6_nl                    |                                          pad_oi8/conv2d_oi8[10, 11]                
      nl_7_nl (Nonlinearity, DEPTHWISE_CONV_2D)    [b:1,h:48,w:48,c:32]                    73,728      conv2d_7                   |                      -73,728(-100.0%)   
------------------------------------------------------------------------------------------------------------------------------------------------------------------------------------------------------------------------
8     conv2d_8 (Conv2D, CONV_2D)                   [b:1,h:48,w:48,c:32]    1,056/1,152     2,359,328   nl_7_nl                    |                                          conv2d_oi8[12]                            
      nl_8_nl (Nonlinearity, CONV_2D)              [b:1,h:48,w:48,c:32]                    73,728      conv2d_8                   |                      -73,728(-100.0%)   
------------------------------------------------------------------------------------------------------------------------------------------------------------------------------------------------------------------------
9     pad_9 (Pad, PAD)                             [b:1,h:49,w:49,c:32]                                nl_8_nl                    |                                          pad_oi8[13]                               
------------------------------------------------------------------------------------------------------------------------------------------------------------------------------------------------------------------------
10    conv2d_10 (Conv2D, DEPTHWISE_CONV_2D)        [b:1,h:24,w:24,c:32]    320/416         165,920     pad_9                      |                                          conv2d_oi8[14]                            
      nl_10_nl (Nonlinearity, DEPTHWISE_CONV_2D)   [b:1,h:24,w:24,c:32]                    18,432      conv2d_10                  |                      -18,432(-100.0%)   
------------------------------------------------------------------------------------------------------------------------------------------------------------------------------------------------------------------------
11    conv2d_11 (Conv2D, CONV_2D)                  [b:1,h:24,w:24,c:64]    2,112/2,304     1,179,712   nl_10_nl                   |                                          conv2d_oi8[15]                            
      nl_11_nl (Nonlinearity, CONV_2D)             [b:1,h:24,w:24,c:64]                    36,864      conv2d_11                  |                      -36,864(-100.0%)   
------------------------------------------------------------------------------------------------------------------------------------------------------------------------------------------------------------------------
12    conv2d_12 (Conv2D, DEPTHWISE_CONV_2D)        [b:1,h:24,w:24,c:64]    640/832         331,840     nl_11_nl                   |                                          pad_oi8/conv2d_oi8[16, 17]                
      nl_12_nl (Nonlinearity, DEPTHWISE_CONV_2D)   [b:1,h:24,w:24,c:64]                    36,864      conv2d_12                  |                      -36,864(-100.0%)   
------------------------------------------------------------------------------------------------------------------------------------------------------------------------------------------------------------------------
13    conv2d_13 (Conv2D, CONV_2D)                  [b:1,h:24,w:24,c:64]    4,160/4,352     2,359,360   nl_12_nl                   |                                          conv2d_oi8[18]                            
      nl_13_nl (Nonlinearity, CONV_2D)             [b:1,h:24,w:24,c:64]                    36,864      conv2d_13                  |                      -36,864(-100.0%)   
------------------------------------------------------------------------------------------------------------------------------------------------------------------------------------------------------------------------
14    conv2d_14 (Conv2D, CONV_2D)                  [b:1,h:24,w:24,c:32]    2,080/2,176     1,179,680   nl_13_nl                   |                                          conv2d_oi8[84]                            
------------------------------------------------------------------------------------------------------------------------------------------------------------------------------------------------------------------------
15    pad_15 (Pad, PAD)                            [b:1,h:25,w:25,c:64]                                nl_13_nl                   |                                          pad_oi8[19]                               
------------------------------------------------------------------------------------------------------------------------------------------------------------------------------------------------------------------------
16    conv2d_16 (Conv2D, DEPTHWISE_CONV_2D)        [b:1,h:12,w:12,c:64]    640/832         83,008      pad_15                     |                                          conv2d_oi8[20]                            
      nl_16_nl (Nonlinearity, DEPTHWISE_CONV_2D)   [b:1,h:12,w:12,c:64]                    9,216       conv2d_16                  |                      -9,216(-100.0%)    
------------------------------------------------------------------------------------------------------------------------------------------------------------------------------------------------------------------------
17    conv2d_17 (Conv2D, CONV_2D)                  [b:1,h:12,w:12,c:128]   8,320/8,704     1,179,776   nl_16_nl                   |                                          conv2d_oi8[21]                            
      nl_17_nl (Nonlinearity, CONV_2D)             [b:1,h:12,w:12,c:128]                   18,432      conv2d_17                  |                      -18,432(-100.0%)   
------------------------------------------------------------------------------------------------------------------------------------------------------------------------------------------------------------------------
18    conv2d_18 (Conv2D, DEPTHWISE_CONV_2D)        [b:1,h:12,w:12,c:128]   1,280/1,664     166,016     nl_17_nl                   |                                          pad_oi8/conv2d_oi8[22, 23]                
      nl_18_nl (Nonlinearity, DEPTHWISE_CONV_2D)   [b:1,h:12,w:12,c:128]                   18,432      conv2d_18                  |                      -18,432(-100.0%)   
------------------------------------------------------------------------------------------------------------------------------------------------------------------------------------------------------------------------
19    conv2d_19 (Conv2D, CONV_2D)                  [b:1,h:12,w:12,c:128]   16,512/16,896   2,359,424   nl_18_nl                   |                                          conv2d_oi8[24]                            
      nl_19_nl (Nonlinearity, CONV_2D)             [b:1,h:12,w:12,c:128]                   18,432      conv2d_19                  |                      -18,432(-100.0%)   
------------------------------------------------------------------------------------------------------------------------------------------------------------------------------------------------------------------------
20    conv2d_20 (Conv2D, DEPTHWISE_CONV_2D)        [b:1,h:12,w:12,c:128]   1,280/1,664     166,016     nl_19_nl                   |                                          pad_oi8/conv2d_oi8[25, 26]                
      nl_20_nl (Nonlinearity, DEPTHWISE_CONV_2D)   [b:1,h:12,w:12,c:128]                   18,432      conv2d_20                  |                      -18,432(-100.0%)   
------------------------------------------------------------------------------------------------------------------------------------------------------------------------------------------------------------------------
21    conv2d_21 (Conv2D, CONV_2D)                  [b:1,h:12,w:12,c:128]   16,512/16,896   2,359,424   nl_20_nl                   |                                          conv2d_oi8[27]                            
      nl_21_nl (Nonlinearity, CONV_2D)             [b:1,h:12,w:12,c:128]                   18,432      conv2d_21                  |                      -18,432(-100.0%)   
------------------------------------------------------------------------------------------------------------------------------------------------------------------------------------------------------------------------
22    conv2d_22 (Conv2D, DEPTHWISE_CONV_2D)        [b:1,h:12,w:12,c:128]   1,280/1,664     166,016     nl_21_nl                   |                                          pad_oi8/conv2d_oi8[28, 29]                
      nl_22_nl (Nonlinearity, DEPTHWISE_CONV_2D)   [b:1,h:12,w:12,c:128]                   18,432      conv2d_22                  |                      -18,432(-100.0%)   
------------------------------------------------------------------------------------------------------------------------------------------------------------------------------------------------------------------------
23    conv2d_23 (Conv2D, CONV_2D)                  [b:1,h:12,w:12,c:128]   16,512/16,896   2,359,424   nl_22_nl                   |                                          conv2d_oi8[30]                            
      nl_23_nl (Nonlinearity, CONV_2D)             [b:1,h:12,w:12,c:128]                   18,432      conv2d_23                  |                      -18,432(-100.0%)   
------------------------------------------------------------------------------------------------------------------------------------------------------------------------------------------------------------------------
24    conv2d_24 (Conv2D, DEPTHWISE_CONV_2D)        [b:1,h:12,w:12,c:128]   1,280/1,664     166,016     nl_23_nl                   |                                          pad_oi8/conv2d_oi8[31, 32]                
      nl_24_nl (Nonlinearity, DEPTHWISE_CONV_2D)   [b:1,h:12,w:12,c:128]                   18,432      conv2d_24                  |                      -18,432(-100.0%)   
------------------------------------------------------------------------------------------------------------------------------------------------------------------------------------------------------------------------
25    conv2d_25 (Conv2D, CONV_2D)                  [b:1,h:12,w:12,c:128]   16,512/16,896   2,359,424   nl_24_nl                   |                                          conv2d_oi8[33]                            
      nl_25_nl (Nonlinearity, CONV_2D)             [b:1,h:12,w:12,c:128]                   18,432      conv2d_25                  |                      -18,432(-100.0%)   
------------------------------------------------------------------------------------------------------------------------------------------------------------------------------------------------------------------------
26    conv2d_26 (Conv2D, DEPTHWISE_CONV_2D)        [b:1,h:12,w:12,c:128]   1,280/1,664     166,016     nl_25_nl                   |                                          pad_oi8/conv2d_oi8[34, 35]                
      nl_26_nl (Nonlinearity, DEPTHWISE_CONV_2D)   [b:1,h:12,w:12,c:128]                   18,432      conv2d_26                  |                      -18,432(-100.0%)   
------------------------------------------------------------------------------------------------------------------------------------------------------------------------------------------------------------------------
27    conv2d_27 (Conv2D, CONV_2D)                  [b:1,h:12,w:12,c:128]   16,512/16,896   2,359,424   nl_26_nl                   |                                          conv2d_oi8[36]                            
      nl_27_nl (Nonlinearity, CONV_2D)             [b:1,h:12,w:12,c:128]                   18,432      conv2d_27                  |                      -18,432(-100.0%)   
------------------------------------------------------------------------------------------------------------------------------------------------------------------------------------------------------------------------
28    conv2d_28 (Conv2D, CONV_2D)                  [b:1,h:12,w:12,c:32]    4,128/4,224     589,856     nl_27_nl                   |                                          conv2d_oi8[75]                            
------------------------------------------------------------------------------------------------------------------------------------------------------------------------------------------------------------------------
29    pad_29 (Pad, PAD)                            [b:1,h:13,w:13,c:128]                               nl_27_nl                   |                                          pad_oi8[37]                               
------------------------------------------------------------------------------------------------------------------------------------------------------------------------------------------------------------------------
30    conv2d_30 (Conv2D, DEPTHWISE_CONV_2D)        [b:1,h:6,w:6,c:128]     1,280/1,664     41,600      pad_29                     |                                          conv2d_oi8[38]                            
      nl_30_nl (Nonlinearity, DEPTHWISE_CONV_2D)   [b:1,h:6,w:6,c:128]                     4,608       conv2d_30                  |                      -4,608(-100.0%)    
------------------------------------------------------------------------------------------------------------------------------------------------------------------------------------------------------------------------
31    conv2d_31 (Conv2D, CONV_2D)                  [b:1,h:6,w:6,c:256]     33,024/33,792   1,179,904   nl_30_nl                   |                                          conv2d_oi8[39]                            
      nl_31_nl (Nonlinearity, CONV_2D)             [b:1,h:6,w:6,c:256]                     9,216       conv2d_31                  |                      -9,216(-100.0%)    
------------------------------------------------------------------------------------------------------------------------------------------------------------------------------------------------------------------------
32    conv2d_32 (Conv2D, DEPTHWISE_CONV_2D)        [b:1,h:6,w:6,c:256]     2,560/3,328     83,200      nl_31_nl                   |                                          pad_oi8/conv2d_oi8[40, 41]                
      nl_32_nl (Nonlinearity, DEPTHWISE_CONV_2D)   [b:1,h:6,w:6,c:256]                     9,216       conv2d_32                  |                      -9,216(-100.0%)    
------------------------------------------------------------------------------------------------------------------------------------------------------------------------------------------------------------------------
33    conv2d_33 (Conv2D, CONV_2D)                  [b:1,h:6,w:6,c:256]     65,792/66,560   2,359,552   nl_32_nl                   |                                          conv2d_oi8[42]                            
      nl_33_nl (Nonlinearity, CONV_2D)             [b:1,h:6,w:6,c:256]                     9,216       conv2d_33                  |                      -9,216(-100.0%)    
------------------------------------------------------------------------------------------------------------------------------------------------------------------------------------------------------------------------
34    conv2d_34 (Conv2D, CONV_2D)                  [b:1,h:6,w:6,c:32]      8,224/8,320     294,944     nl_33_nl                   |                                          conv2d_oi8[66]                            
------------------------------------------------------------------------------------------------------------------------------------------------------------------------------------------------------------------------
35    conv2d_35 (Conv2D, DEPTHWISE_CONV_2D)        [b:1,h:3,w:3,c:256]     2,560/3,328     20,992      nl_33_nl                   |                                          pad_oi8/conv2d_oi8[43, 44]                
      nl_35_nl (Nonlinearity, DEPTHWISE_CONV_2D)   [b:1,h:3,w:3,c:256]                     2,304       conv2d_35                  |                      -2,304(-100.0%)    
------------------------------------------------------------------------------------------------------------------------------------------------------------------------------------------------------------------------
36    conv2d_36 (Conv2D, CONV_2D)                  [b:1,h:3,w:3,c:256]     65,792/66,560   590,080     nl_35_nl                   |                                          conv2d_oi8[45]                            
      nl_36_nl (Nonlinearity, CONV_2D)             [b:1,h:3,w:3,c:256]                     2,304       conv2d_36                  |                      -2,304(-100.0%)    
------------------------------------------------------------------------------------------------------------------------------------------------------------------------------------------------------------------------
37    conv2d_37 (Conv2D, DEPTHWISE_CONV_2D)        [b:1,h:3,w:3,c:256]     2,560/3,328     20,992      nl_36_nl                   |                                          pad_oi8/conv2d_oi8[46, 47]                
      nl_37_nl (Nonlinearity, DEPTHWISE_CONV_2D)   [b:1,h:3,w:3,c:256]                     2,304       conv2d_37                  |                      -2,304(-100.0%)    
------------------------------------------------------------------------------------------------------------------------------------------------------------------------------------------------------------------------
38    conv2d_38 (Conv2D, CONV_2D)                  [b:1,h:3,w:3,c:256]     65,792/66,560   590,080     nl_37_nl                   |                                          conv2d_oi8[48]                            
      nl_38_nl (Nonlinearity, CONV_2D)             [b:1,h:3,w:3,c:256]                     2,304       conv2d_38                  |                      -2,304(-100.0%)    
------------------------------------------------------------------------------------------------------------------------------------------------------------------------------------------------------------------------
39    conv2d_39 (Conv2D, CONV_2D)                  [b:1,h:3,w:3,c:32]      8,224/8,320     73,760      nl_38_nl                   |                                          conv2d_oi8[57]                            
------------------------------------------------------------------------------------------------------------------------------------------------------------------------------------------------------------------------
40    pool_40 (Pool, MEAN)                         [b:1,h:1,w:1,c:256]                     2,304       nl_38_nl                   |                                          pool_oi8[49]                              
      reshape_40_reshape (Reshape, MEAN)           [b:1,c:256]                                         pool_40                    |                                         
------------------------------------------------------------------------------------------------------------------------------------------------------------------------------------------------------------------------
44    reshape_44 (Reshape, RESHAPE)                [b:1,h:1,w:1,c:256]                                 reshape_40_reshape         |                                         
------------------------------------------------------------------------------------------------------------------------------------------------------------------------------------------------------------------------
45    conv2d_45 (Conv2D, CONV_2D)                  [b:1,h:1,w:1,c:32]      8,224/8,320     8,224       reshape_44                 |                                          conv2d_oi8[50]                            
------------------------------------------------------------------------------------------------------------------------------------------------------------------------------------------------------------------------
46    conv2d_46 (Conv2D, CONV_2D)                  [b:1,h:1,w:1,c:10]      2,890/2,920     2,890       conv2d_45                  |                                          pad_oi8/conv2d_oi8[51, 52]                
------------------------------------------------------------------------------------------------------------------------------------------------------------------------------------------------------------------------
50    reshape_50 (Reshape, RESHAPE)                [b:1,h:5,c:2]                                       conv2d_46                  |                                         
------------------------------------------------------------------------------------------------------------------------------------------------------------------------------------------------------------------------
51    conv2d_51 (Conv2D, CONV_2D)                  [b:1,h:1,w:1,c:20]      5,780/5,840     5,780       conv2d_45                  |                                          pad_oi8/conv2d_oi8[53, 54]                
------------------------------------------------------------------------------------------------------------------------------------------------------------------------------------------------------------------------
55    reshape_55 (Reshape, RESHAPE)                [b:1,h:5,c:4]                                       conv2d_51                  |                                         
------------------------------------------------------------------------------------------------------------------------------------------------------------------------------------------------------------------------
63    reshape_63_const (Placeholder, RESHAPE)      [b:1,h:5,c:4]           20/20                                                  |   -20(-100.0%)                          
------------------------------------------------------------------------------------------------------------------------------------------------------------------------------------------------------------------------
64    tile_64 (Tile, RESIZE_BILINEAR)              [b:1,h:2,w:2,c:32]                                  conv2d_45                  |                                          tile_oi8[55]                              
------------------------------------------------------------------------------------------------------------------------------------------------------------------------------------------------------------------------
65    pad_65 (Pad, PAD)                            [b:1,h:3,w:3,c:32]                                  tile_64                    |                                          pad_oi8[56]                               
------------------------------------------------------------------------------------------------------------------------------------------------------------------------------------------------------------------------
66    eltwise_66 (Eltwise, ADD)                    [b:1,h:3,w:3,c:32]                      288         conv2d_39                  |                      +576(+200.0%)       eltwise_integer_oi8/converter_of32[58, 59]
                                                                                                       pad_65                     |  
------------------------------------------------------------------------------------------------------------------------------------------------------------------------------------------------------------------------
67    conv2d_67 (Conv2D, CONV_2D)                  [b:1,h:3,w:3,c:20]      5,780/5,840     51,860      eltwise_66                 |                                          pad_oi8/conv2d_oi8[62, 63]                
------------------------------------------------------------------------------------------------------------------------------------------------------------------------------------------------------------------------
71    reshape_71 (Reshape, RESHAPE)                [b:1,h:45,c:4]                                      conv2d_67                  |                                         
------------------------------------------------------------------------------------------------------------------------------------------------------------------------------------------------------------------------
72    conv2d_72 (Conv2D, CONV_2D)                  [b:1,h:3,w:3,c:10]      2,890/2,920     25,930      eltwise_66                 |                                          pad_oi8/conv2d_oi8[64, 65]                
------------------------------------------------------------------------------------------------------------------------------------------------------------------------------------------------------------------------
76    reshape_76 (Reshape, RESHAPE)                [b:1,h:45,c:2]                                      conv2d_72                  |                                         
------------------------------------------------------------------------------------------------------------------------------------------------------------------------------------------------------------------------
84    reshape_84_const (Placeholder, RESHAPE)      [b:1,h:45,c:4]          180/180                                                |   -180(-100.0%)                         
------------------------------------------------------------------------------------------------------------------------------------------------------------------------------------------------------------------------
85    upsample_85 (Upsample, RESIZE_BILINEAR)      [b:1,h:6,w:6,c:32]                      4,608       eltwise_66                 |                      +2,304(+50.0%)      upsample_of32/converter_oi8[60, 61]       
------------------------------------------------------------------------------------------------------------------------------------------------------------------------------------------------------------------------
86    eltwise_86 (Eltwise, ADD)                    [b:1,h:6,w:6,c:32]                      1,152       conv2d_34                  |                      +2,304(+200.0%)     eltwise_integer_oi8/converter_of32[67, 68]
                                                                                                       upsample_85                |  
------------------------------------------------------------------------------------------------------------------------------------------------------------------------------------------------------------------------
87    conv2d_87 (Conv2D, CONV_2D)                  [b:1,h:6,w:6,c:10]      2,890/2,920     103,690     eltwise_86                 |                                          pad_oi8/conv2d_oi8[71, 72]                
------------------------------------------------------------------------------------------------------------------------------------------------------------------------------------------------------------------------
91    reshape_91 (Reshape, RESHAPE)                [b:1,h:180,c:2]                                     conv2d_87                  |                                         
------------------------------------------------------------------------------------------------------------------------------------------------------------------------------------------------------------------------
92    conv2d_92 (Conv2D, CONV_2D)                  [b:1,h:6,w:6,c:20]      5,780/5,840     207,380     eltwise_86                 |                                          pad_oi8/conv2d_oi8[73, 74]                
------------------------------------------------------------------------------------------------------------------------------------------------------------------------------------------------------------------------
96    reshape_96 (Reshape, RESHAPE)                [b:1,h:180,c:4]                                     conv2d_92                  |                                         
------------------------------------------------------------------------------------------------------------------------------------------------------------------------------------------------------------------------
104   reshape_104_const (Placeholder, RESHAPE)     [b:1,h:180,c:4]         720/720                                                |   -720(-100.0%)                         
------------------------------------------------------------------------------------------------------------------------------------------------------------------------------------------------------------------------
105   upsample_105 (Upsample, RESIZE_BILINEAR)     [b:1,h:12,w:12,c:32]                    18,432      eltwise_86                 |                      +9,216(+50.0%)      upsample_of32/converter_oi8[69, 70]       
------------------------------------------------------------------------------------------------------------------------------------------------------------------------------------------------------------------------
106   eltwise_106 (Eltwise, ADD)                   [b:1,h:12,w:12,c:32]                    4,608       conv2d_28                  |                      +9,216(+200.0%)     eltwise_integer_oi8/converter_of32[76, 77]
                                                                                                       upsample_105               |  
------------------------------------------------------------------------------------------------------------------------------------------------------------------------------------------------------------------------
107   conv2d_107 (Conv2D, CONV_2D)                 [b:1,h:12,w:12,c:10]    2,890/2,920     414,730     eltwise_106                |                                          pad_oi8/conv2d_oi8[80, 81]                
------------------------------------------------------------------------------------------------------------------------------------------------------------------------------------------------------------------------
111   reshape_111 (Reshape, RESHAPE)               [b:1,h:720,c:2]                                     conv2d_107                 |                                         
------------------------------------------------------------------------------------------------------------------------------------------------------------------------------------------------------------------------
112   conv2d_112 (Conv2D, CONV_2D)                 [b:1,h:12,w:12,c:20]    5,780/5,840     829,460     eltwise_106                |                                          pad_oi8/conv2d_oi8[82, 83]                
------------------------------------------------------------------------------------------------------------------------------------------------------------------------------------------------------------------------
116   reshape_116 (Reshape, RESHAPE)               [b:1,h:720,c:4]                                     conv2d_112                 |                                         
------------------------------------------------------------------------------------------------------------------------------------------------------------------------------------------------------------------------
124   reshape_124_const (Placeholder, RESHAPE)     [b:1,h:720,c:4]         2,880/2,880                                            |   -2,880(-100.0%)                       
------------------------------------------------------------------------------------------------------------------------------------------------------------------------------------------------------------------------
125   upsample_125 (Upsample, RESIZE_BILINEAR)     [b:1,h:24,w:24,c:32]                    73,728      eltwise_106                |                      +36,864(+50.0%)     upsample_of32/converter_oi8[78, 79]       
------------------------------------------------------------------------------------------------------------------------------------------------------------------------------------------------------------------------
126   eltwise_126 (Eltwise, ADD)                   [b:1,h:24,w:24,c:32]                    18,432      conv2d_14                  |                                          eltwise_integer_oi8[85]                   
                                                                                                       upsample_125               |  
------------------------------------------------------------------------------------------------------------------------------------------------------------------------------------------------------------------------
127   conv2d_127 (Conv2D, CONV_2D)                 [b:1,h:24,w:24,c:10]    2,890/2,920     1,658,890   eltwise_126                |                                          pad_oi8/conv2d_oi8[86, 87]                
------------------------------------------------------------------------------------------------------------------------------------------------------------------------------------------------------------------------
131   reshape_131 (Reshape, RESHAPE)               [b:1,h:2880,c:2]                                    conv2d_127                 |                                         
------------------------------------------------------------------------------------------------------------------------------------------------------------------------------------------------------------------------
132   concat_132 (Concat, CONCATENATION)           [b:1,h:3830,c:2]                                    reshape_131                |                      +15,320(+100.0%)    concat_oi8/converter_of32[88, 89]         
                                                                                                       reshape_111                |  
                                                                                                       reshape_91                 |  
                                                                                                       reshape_76                 |  
                                                                                                       reshape_50                 |  
------------------------------------------------------------------------------------------------------------------------------------------------------------------------------------------------------------------------
133   nl_133 (Nonlinearity, SOFTMAX)               [b:1,h:3830,c:2]                        114,900     concat_132                 |                                          nl_of32[o][90]                            
------------------------------------------------------------------------------------------------------------------------------------------------------------------------------------------------------------------------
134   conversion_134 (Conversion, DEQUANTIZE)      [b:1,h:3830,c:2]                        15,320      nl_133                     |                      -15,320(-100.0%)   
------------------------------------------------------------------------------------------------------------------------------------------------------------------------------------------------------------------------
135   conv2d_135 (Conv2D, CONV_2D)                 [b:1,h:24,w:24,c:20]    5,780/5,840     3,317,780   eltwise_126                |                                          pad_oi8/conv2d_oi8[91, 92]                
------------------------------------------------------------------------------------------------------------------------------------------------------------------------------------------------------------------------
139   reshape_139 (Reshape, RESHAPE)               [b:1,h:2880,c:4]                                    conv2d_135                 |                                         
------------------------------------------------------------------------------------------------------------------------------------------------------------------------------------------------------------------------
140   concat_140 (Concat, CONCATENATION)           [b:1,h:3830,c:4]                                    reshape_139                |                                          concat_oi8[93]                            
                                                                                                       reshape_116                |  
                                                                                                       reshape_96                 |  
                                                                                                       reshape_71                 |  
                                                                                                       reshape_55                 |  
------------------------------------------------------------------------------------------------------------------------------------------------------------------------------------------------------------------------
141   conversion_141 (Conversion, DEQUANTIZE)      [b:1,h:3830,c:4]                        30,640      concat_140                 |                                          converter_of32[o][94]                     
------------------------------------------------------------------------------------------------------------------------------------------------------------------------------------------------------------------------
149   reshape_149_const (Placeholder, RESHAPE)     [b:1,h:2880,c:4]        11,520/11,520                                          |   -11,520(-100.0%)                      
------------------------------------------------------------------------------------------------------------------------------------------------------------------------------------------------------------------------
150   concat_150 (Concat, CONCATENATION)           [b:1,h:3830,c:4]                                    reshape_149_const          |   +15,320(+100.0%)                       concat_oi8[0]                             
                                                                                                       reshape_124_const          |  
                                                                                                       reshape_104_const          |  
                                                                                                       reshape_84_const           |  
                                                                                                       reshape_63_const           |  
------------------------------------------------------------------------------------------------------------------------------------------------------------------------------------------------------------------------
151   conversion_151 (Conversion, DEQUANTIZE)      [b:1,h:3830,c:4]                        30,640      concat_150                 |                                          converter_of32[o][1]                      
------------------------------------------------------------------------------------------------------------------------------------------------------------------------------------------------------------------------
model/c-model: macc=41,418,002/40,543,058 -874,944(-2.1%) weights=448,800/448,800  activations=--/223,280 io=--/0



Generated C-graph summary
------------------------------------------------------------------------------------------------------------------------
model name            : ssd_mobilenet_v1_025_192_int8
c-name                : network
c-node #              : 95
c-array #             : 270
activations size      : 223280 (1 segment)
weights size          : 448800 (1 segment)
macc                  : 40543058
inputs                : ['serving_default_input_10_output']
outputs               : ['nl_133_output', 'conversion_141_output', 'conversion_151_output']

C-Arrays (270)
---------------------------------------------------------------------------------------------------------------------------
c_id   name (*_array)                     item/size       domain/mem-pool           c-type          fmt            comment
---------------------------------------------------------------------------------------------------------------------------
0      conv2d_11_weights                  2048/2048       weights/weights           const int8_t    ss8/ch(64)            
1      conv2d_33_scratch0                 3584/3584       activations/**default**   int8_t          s8                    
2      conv2d_11_bias                     64/256          weights/weights           const int32_t   ss32/ch(64)           
3      conv2d_33_scratch1                 9216/9216       activations/**default**   int8_t          sa8                   
4      conv2d_12_weights                  576/576         weights/weights           const int8_t    ss8/ch(64)            
5      conv2d_35_scratch0                 9473/9473       activations/**default**   int8_t          s8                    
6      conv2d_12_bias                     64/256          weights/weights           const int32_t   ss32/ch(64)           
7      conv2d_35_scratch1                 2304/2304       activations/**default**   int8_t          sa8                   
8      conv2d_13_weights                  4096/4096       weights/weights           const int8_t    ss8/ch(64)            
9      conv2d_31_scratch1                 9216/9216       activations/**default**   int8_t          sa8                   
10     conv2d_36_scratch0                 3584/3584       activations/**default**   int8_t          s8                    
11     conv2d_13_bias                     64/256          weights/weights           const int32_t   ss32/ch(64)           
12     conv2d_36_scratch1                 2304/2304       activations/**default**   int8_t          sa8                   
13     conv2d_16_weights                  576/576         weights/weights           const int8_t    ss8/ch(64)            
14     conv2d_37_scratch0                 9473/9473       activations/**default**   int8_t          s8                    
15     conv2d_16_bias                     64/256          weights/weights           const int32_t   ss32/ch(64)           
16     conv2d_37_scratch1                 2304/2304       activations/**default**   int8_t          sa8                   
17     conv2d_17_weights                  8192/8192       weights/weights           const int8_t    ss8/ch(128)           
18     conv2d_38_scratch0                 3584/3584       activations/**default**   int8_t          s8                    
19     conv2d_17_bias                     128/512         weights/weights           const int32_t   ss32/ch(128)          
20     conv2d_38_scratch1                 2304/2304       activations/**default**   int8_t          sa8                   
21     conv2d_18_weights                  1152/1152       weights/weights           const int8_t    ss8/ch(128)           
22     conv2d_45_scratch0                 1344/1344       activations/**default**   int8_t          s8                    
23     conv2d_18_bias                     128/512         weights/weights           const int32_t   ss32/ch(128)          
24     conv2d_46_scratch0                 6372/6372       activations/**default**   int8_t          s8                    
25     conv2d_19_weights                  16384/16384     weights/weights           const int8_t    ss8/ch(128)           
26     conv2d_51_scratch0                 6472/6472       activations/**default**   int8_t          s8                    
27     conv2d_19_bias                     128/512         weights/weights           const int32_t   ss32/ch(128)          
28     conv2d_20_weights                  1152/1152       weights/weights           const int8_t    ss8/ch(128)           
29     conv2d_32_scratch1                 9216/9216       activations/**default**   int8_t          sa8                   
30     conv2d_39_scratch0                 1344/1344       activations/**default**   int8_t          s8                    
31     conv2d_20_bias                     128/512         weights/weights           const int32_t   ss32/ch(128)          
32     conv2d_67_scratch0                 6472/6472       activations/**default**   int8_t          s8                    
33     conv2d_21_weights                  16384/16384     weights/weights           const int8_t    ss8/ch(128)           
34     conv2d_72_scratch0                 6372/6372       activations/**default**   int8_t          s8                    
35     conv2d_21_bias                     128/512         weights/weights           const int32_t   ss32/ch(128)          
36     conv2d_34_scratch0                 1344/1344       activations/**default**   int8_t          s8                    
37     conv2d_22_weights                  1152/1152       weights/weights           const int8_t    ss8/ch(128)           
38     conv2d_22_bias                     128/512         weights/weights           const int32_t   ss32/ch(128)          
39     conv2d_87_scratch0                 6372/6372       activations/**default**   int8_t          s8                    
40     conv2d_23_weights                  16384/16384     weights/weights           const int8_t    ss8/ch(128)           
41     conv2d_92_scratch0                 6472/6472       activations/**default**   int8_t          s8                    
42     conv2d_23_bias                     128/512         weights/weights           const int32_t   ss32/ch(128)          
43     conv2d_28_scratch0                 832/832         activations/**default**   int8_t          s8                    
44     conv2d_24_weights                  1152/1152       weights/weights           const int8_t    ss8/ch(128)           
45     conv2d_107_scratch0                6372/6372       activations/**default**   int8_t          s8                    
46     conv2d_24_bias                     128/512         weights/weights           const int32_t   ss32/ch(128)          
47     conv2d_25_weights                  16384/16384     weights/weights           const int8_t    ss8/ch(128)           
48     conv2d_112_scratch0                6472/6472       activations/**default**   int8_t          s8                    
49     conv2d_25_bias                     128/512         weights/weights           const int32_t   ss32/ch(128)          
50     conv2d_14_scratch0                 576/576         activations/**default**   int8_t          s8                    
51     conv2d_26_weights                  1152/1152       weights/weights           const int8_t    ss8/ch(128)           
52     conv2d_127_scratch0                6372/6372       activations/**default**   int8_t          s8                    
53     conv2d_26_bias                     128/512         weights/weights           const int32_t   ss32/ch(128)          
54     conv2d_135_scratch0                6472/6472       activations/**default**   int8_t          s8                    
55     conv2d_27_weights                  16384/16384     weights/weights           const int8_t    ss8/ch(128)           
56     conv2d_27_bias                     128/512         weights/weights           const int32_t   ss32/ch(128)          
57     conv2d_30_weights                  1152/1152       weights/weights           const int8_t    ss8/ch(128)           
58     conv2d_30_bias                     128/512         weights/weights           const int32_t   ss32/ch(128)          
59     conv2d_31_weights                  32768/32768     weights/weights           const int8_t    ss8/ch(256)           
60     conv2d_31_bias                     256/1024        weights/weights           const int32_t   ss32/ch(256)          
61     conv2d_32_weights                  2304/2304       weights/weights           const int8_t    ss8/ch(256)           
62     conv2d_32_bias                     256/1024        weights/weights           const int32_t   ss32/ch(256)          
63     concat_150_output                  15320/15320     activations/**default**   int8_t          sa8                   
64     conversion_151_output              15320/61280     activations/**default**   float           float32        /output
65     conv2d_33_weights                  65536/65536     weights/weights           const int8_t    ss8/ch(256)           
66     serving_default_input_10_output    110592/110592   activations/**default**   uint8_t         ua8            /input 
67     conversion_0_output                110592/110593   activations/**default**   int8_t          sa8                   
68     conv2d_33_bias                     256/1024        weights/weights           const int32_t   ss32/ch(256)          
69     conv2d_1_output                    73728/73728     activations/**default**   int8_t          sa8                   
70     conv2d_2_pad_before_output         76832/76832     activations/**default**   int8_t          sa8                   
71     conv2d_35_weights                  2304/2304       weights/weights           const int8_t    ss8/ch(256)           
72     conv2d_2_output                    73728/73728     activations/**default**   int8_t          sa8                   
73     conv2d_3_output                    147456/147456   activations/**default**   int8_t          sa8                   
74     conv2d_35_bias                     256/1024        weights/weights           const int32_t   ss32/ch(256)          
75     conv2d_5_pad_before_output         150544/150544   activations/**default**   int8_t          sa8                   
76     conv2d_5_output                    36864/36864     activations/**default**   int8_t          sa8                   
77     conv2d_36_weights                  65536/65536     weights/weights           const int8_t    ss8/ch(256)           
78     conv2d_6_output                    73728/73728     activations/**default**   int8_t          sa8                   
79     conv2d_7_pad_before_output         80000/80000     activations/**default**   int8_t          sa8                   
80     conv2d_36_bias                     256/1024        weights/weights           const int32_t   ss32/ch(256)          
81     conv2d_7_output                    73728/73728     activations/**default**   int8_t          sa8                   
82     conv2d_8_output                    73728/73728     activations/**default**   int8_t          sa8                   
83     conv2d_37_weights                  2304/2304       weights/weights           const int8_t    ss8/ch(256)           
84     conv2d_10_pad_before_output        76832/76832     activations/**default**   int8_t          sa8                   
85     conv2d_10_output                   18432/18432     activations/**default**   int8_t          sa8                   
86     conv2d_37_bias                     256/1024        weights/weights           const int32_t   ss32/ch(256)          
87     conv2d_11_output                   36864/36864     activations/**default**   int8_t          sa8                   
88     conv2d_12_pad_before_output        43264/43264     activations/**default**   int8_t          sa8                   
89     conv2d_38_weights                  65536/65536     weights/weights           const int8_t    ss8/ch(256)           
90     conv2d_12_output                   36864/36864     activations/**default**   int8_t          sa8                   
91     conv2d_13_output                   36864/36864     activations/**default**   int8_t          sa8                   
92     conv2d_38_bias                     256/1024        weights/weights           const int32_t   ss32/ch(256)          
93     conv2d_16_pad_before_output        40000/40000     activations/**default**   int8_t          sa8                   
94     conv2d_16_output                   9216/9216       activations/**default**   int8_t          sa8                   
95     conv2d_45_weights                  8192/8192       weights/weights           const int8_t    ss8/ch(32)            
96     conv2d_17_output                   18432/18432     activations/**default**   int8_t          sa8                   
97     conv2d_18_pad_before_output        25088/25088     activations/**default**   int8_t          sa8                   
98     conv2d_45_bias                     32/128          weights/weights           const int32_t   ss32/ch(32)           
99     conv2d_18_output                   18432/18432     activations/**default**   int8_t          sa8                   
100    conv2d_19_output                   18432/18432     activations/**default**   int8_t          sa8                   
101    conv2d_46_weights                  2880/2880       weights/weights           const int8_t    ss8/ch(10)            
102    conv2d_20_pad_before_output        25088/25088     activations/**default**   int8_t          sa8                   
103    conv2d_20_output                   18432/18432     activations/**default**   int8_t          sa8                   
104    conv2d_46_bias                     10/40           weights/weights           const int32_t   ss32/ch(10)           
105    conv2d_21_output                   18432/18432     activations/**default**   int8_t          sa8                   
106    conv2d_22_pad_before_output        25088/25088     activations/**default**   int8_t          sa8                   
107    conv2d_51_weights                  5760/5760       weights/weights           const int8_t    ss8/ch(20)            
108    conv2d_22_output                   18432/18432     activations/**default**   int8_t          sa8                   
109    conv2d_23_output                   18432/18432     activations/**default**   int8_t          sa8                   
110    conv2d_51_bias                     20/80           weights/weights           const int32_t   ss32/ch(20)           
111    conv2d_24_pad_before_output        25088/25088     activations/**default**   int8_t          sa8                   
112    conv2d_24_output                   18432/18432     activations/**default**   int8_t          sa8                   
113    conv2d_39_weights                  8192/8192       weights/weights           const int8_t    ss8/ch(32)            
114    conv2d_25_output                   18432/18432     activations/**default**   int8_t          sa8                   
115    conv2d_26_pad_before_output        25088/25088     activations/**default**   int8_t          sa8                   
116    conv2d_39_bias                     32/128          weights/weights           const int32_t   ss32/ch(32)           
117    conv2d_26_output                   18432/18432     activations/**default**   int8_t          sa8                   
118    conv2d_27_output                   18432/18432     activations/**default**   int8_t          sa8                   
119    conv2d_67_weights                  5760/5760       weights/weights           const int8_t    ss8/ch(20)            
120    conv2d_30_pad_before_output        21632/21632     activations/**default**   int8_t          sa8                   
121    conv2d_30_output                   4608/4608       activations/**default**   int8_t          sa8                   
122    conv2d_67_bias                     20/80           weights/weights           const int32_t   ss32/ch(20)           
123    conv2d_31_output                   9216/9216       activations/**default**   int8_t          sa8                   
124    conv2d_32_pad_before_output        16384/16384     activations/**default**   int8_t          sa8                   
125    conv2d_72_weights                  2880/2880       weights/weights           const int8_t    ss8/ch(10)            
126    conv2d_32_output                   9216/9216       activations/**default**   int8_t          sa8                   
127    conv2d_33_output                   9216/9216       activations/**default**   int8_t          sa8                   
128    conv2d_72_bias                     10/40           weights/weights           const int32_t   ss32/ch(10)           
129    conv2d_35_pad_before_output        16384/16384     activations/**default**   int8_t          sa8                   
130    conv2d_35_output                   2304/2304       activations/**default**   int8_t          sa8                   
131    conv2d_34_weights                  8192/8192       weights/weights           const int8_t    ss8/ch(32)            
132    conv2d_36_output                   2304/2304       activations/**default**   int8_t          sa8                   
133    conv2d_37_pad_before_output        6400/6400       activations/**default**   int8_t          sa8                   
134    conv2d_34_bias                     32/128          weights/weights           const int32_t   ss32/ch(32)           
135    conv2d_37_output                   2304/2304       activations/**default**   int8_t          sa8                   
136    conv2d_38_output                   2304/2304       activations/**default**   int8_t          sa8                   
137    conv2d_87_weights                  2880/2880       weights/weights           const int8_t    ss8/ch(10)            
138    pool_40_output                     256/256         activations/**default**   int8_t          sa8                   
139    conv2d_45_output                   32/32           activations/**default**   int8_t          sa8                   
140    conv2d_87_bias                     10/40           weights/weights           const int32_t   ss32/ch(10)           
141    conv2d_46_pad_before_output        288/288         activations/**default**   int8_t          sa8                   
142    conv2d_46_output                   10/10           activations/**default**   int8_t          sa8                   
143    conv2d_92_weights                  5760/5760       weights/weights           const int8_t    ss8/ch(20)            
144    conv2d_51_pad_before_output        288/288         activations/**default**   int8_t          sa8                   
145    conv2d_51_output                   20/20           activations/**default**   int8_t          sa8                   
146    conv2d_92_bias                     20/80           weights/weights           const int32_t   ss32/ch(20)           
147    tile_64_output                     128/128         activations/**default**   int8_t          sa8                   
148    pad_65_output                      288/288         activations/**default**   int8_t          sa8                   
149    conv2d_28_weights                  4096/4096       weights/weights           const int8_t    ss8/ch(32)            
150    conv2d_39_output                   288/288         activations/**default**   int8_t          sa8                   
151    eltwise_66_output                  288/288         activations/**default**   int8_t          sa8                   
152    conv2d_28_bias                     32/128          weights/weights           const int32_t   ss32/ch(32)           
153    eltwise_66_0_conversion_output     288/1152        activations/**default**   float           float32               
154    upsample_85_output                 1152/4608       activations/**default**   float           float32               
155    conv2d_107_weights                 2880/2880       weights/weights           const int8_t    ss8/ch(10)            
156    upsample_85_0_conversion_output    1152/1152       activations/**default**   int8_t          sa8                   
157    conv2d_67_pad_before_output        800/800         activations/**default**   int8_t          sa8                   
158    conv2d_107_bias                    10/40           weights/weights           const int32_t   ss32/ch(10)           
159    conv2d_67_output                   180/180         activations/**default**   int8_t          sa8                   
160    conv2d_72_pad_before_output        800/800         activations/**default**   int8_t          sa8                   
161    conv2d_112_weights                 5760/5760       weights/weights           const int8_t    ss8/ch(20)            
162    conv2d_72_output                   90/90           activations/**default**   int8_t          sa8                   
163    conv2d_34_output                   1152/1152       activations/**default**   int8_t          sa8                   
164    conv2d_112_bias                    20/80           weights/weights           const int32_t   ss32/ch(20)           
165    eltwise_86_output                  1152/1152       activations/**default**   int8_t          sa8                   
166    eltwise_86_0_conversion_output     1152/4608       activations/**default**   float           float32               
167    conv2d_14_weights                  2048/2048       weights/weights           const int8_t    ss8/ch(32)            
168    upsample_105_output                4608/18432      activations/**default**   float           float32               
169    upsample_105_0_conversion_output   4608/4608       activations/**default**   int8_t          sa8                   
170    conv2d_14_bias                     32/128          weights/weights           const int32_t   ss32/ch(32)           
171    conv2d_87_pad_before_output        2048/2048       activations/**default**   int8_t          sa8                   
172    conv2d_87_output                   360/360         activations/**default**   int8_t          sa8                   
173    conv2d_127_weights                 2880/2880       weights/weights           const int8_t    ss8/ch(10)            
174    conv2d_92_pad_before_output        2048/2048       activations/**default**   int8_t          sa8                   
175    conv2d_92_output                   720/720         activations/**default**   int8_t          sa8                   
176    conv2d_127_bias                    10/40           weights/weights           const int32_t   ss32/ch(10)           
177    conv2d_28_output                   4608/4608       activations/**default**   int8_t          sa8                   
178    eltwise_106_output                 4608/4608       activations/**default**   int8_t          ss8                   
179    conv2d_135_weights                 5760/5760       weights/weights           const int8_t    ss8/ch(20)            
180    eltwise_106_0_conversion_output    4608/18432      activations/**default**   float           float32               
181    upsample_125_output                18432/73728     activations/**default**   float           float32               
182    conv2d_135_bias                    20/80           weights/weights           const int32_t   ss32/ch(20)           
183    upsample_125_0_conversion_output   18432/18432     activations/**default**   int8_t          ss8                   
184    conv2d_107_pad_before_output       6272/6272       activations/**default**   int8_t          ss8                   
185    conv2d_1_scratch0                  652/652         activations/**default**   int8_t          s8                    
186    conv2d_107_output                  1440/1440       activations/**default**   int8_t          sa8                   
187    conv2d_112_pad_before_output       6272/6272       activations/**default**   int8_t          ss8                   
188    conv2d_1_scratch1                  73728/73728     activations/**default**   int8_t          sa8                   
189    conv2d_112_output                  2880/2880       activations/**default**   int8_t          sa8                   
190    conv2d_14_output                   18432/18432     activations/**default**   int8_t          sa8                   
191    conv2d_2_scratch0                  297/297         activations/**default**   int8_t          s8                    
192    eltwise_126_output                 18432/18432     activations/**default**   int8_t          sa8                   
193    conv2d_127_pad_before_output       21632/21632     activations/**default**   int8_t          sa8                   
194    conv2d_2_scratch1                  73728/73728     activations/**default**   int8_t          sa8                   
195    conv2d_127_output                  5760/5760       activations/**default**   int8_t          sa8                   
196    concat_132_output                  7660/7660       activations/**default**   int8_t          sa8                   
197    conv2d_3_scratch0                  192/192         activations/**default**   int8_t          s8                    
198    concat_132_0_conversion_output     7660/30640      activations/**default**   float           float32               
199    nl_133_output                      7660/30640      activations/**default**   float           float32        /output
200    conv2d_3_scratch1                  147456/147456   activations/**default**   int8_t          sa8                   
201    conv2d_135_pad_before_output       21632/21632     activations/**default**   int8_t          sa8                   
202    conv2d_135_output                  11520/11520     activations/**default**   int8_t          sa8                   
203    conv2d_5_scratch0                  593/593         activations/**default**   int8_t          s8                    
204    concat_140_output                  15320/15320     activations/**default**   int8_t          sa8                   
205    conversion_141_output              15320/61280     activations/**default**   float           float32        /output
206    conv2d_5_scratch1                  36864/36864     activations/**default**   int8_t          sa8                   
207    conv2d_6_scratch0                  384/384         activations/**default**   int8_t          s8                    
208    conv2d_6_scratch1                  73728/73728     activations/**default**   int8_t          sa8                   
209    conv2d_7_scratch0                  1185/1185       activations/**default**   int8_t          s8                    
210    conv2d_7_scratch1                  73728/73728     activations/**default**   int8_t          sa8                   
211    conv2d_8_scratch0                  448/448         activations/**default**   int8_t          s8                    
212    conv2d_8_scratch1                  73728/73728     activations/**default**   int8_t          sa8                   
213    conv2d_10_scratch0                 1185/1185       activations/**default**   int8_t          s8                    
214    conv2d_10_scratch1                 18432/18432     activations/**default**   int8_t          sa8                   
215    conv2d_11_scratch0                 768/768         activations/**default**   int8_t          s8                    
216    conv2d_11_scratch1                 36864/36864     activations/**default**   int8_t          sa8                   
217    conv2d_12_scratch0                 2369/2369       activations/**default**   int8_t          s8                    
218    conv2d_12_scratch1                 36864/36864     activations/**default**   int8_t          sa8                   
219    conv2d_13_scratch0                 896/896         activations/**default**   int8_t          s8                    
220    conv2d_13_scratch1                 36864/36864     activations/**default**   int8_t          sa8                   
221    conv2d_16_scratch0                 2369/2369       activations/**default**   int8_t          s8                    
222    conv2d_16_scratch1                 9216/9216       activations/**default**   int8_t          sa8                   
223    conv2d_17_scratch0                 1536/1536       activations/**default**   int8_t          s8                    
224    conv2d_17_scratch1                 18432/18432     activations/**default**   int8_t          sa8                   
225    conv2d_18_scratch0                 4737/4737       activations/**default**   int8_t          s8                    
226    conv2d_18_scratch1                 18432/18432     activations/**default**   int8_t          sa8                   
227    conv2d_19_scratch0                 1792/1792       activations/**default**   int8_t          s8                    
228    conv2d_19_scratch1                 18432/18432     activations/**default**   int8_t          sa8                   
229    conv2d_20_scratch0                 4737/4737       activations/**default**   int8_t          s8                    
230    conv2d_20_scratch1                 18432/18432     activations/**default**   int8_t          sa8                   
231    reshape_63_const                   20/20           weights/weights           const int8_t    sa8                   
232    reshape_84_const                   180/180         weights/weights           const int8_t    sa8                   
233    conv2d_21_scratch0                 1792/1792       activations/**default**   int8_t          s8                    
234    conv2d_21_scratch1                 18432/18432     activations/**default**   int8_t          sa8                   
235    reshape_104_const                  720/720         weights/weights           const int8_t    sa8                   
236    reshape_124_const                  2880/2880       weights/weights           const int8_t    sa8                   
237    conv2d_22_scratch0                 4737/4737       activations/**default**   int8_t          s8                    
238    conv2d_22_scratch1                 18432/18432     activations/**default**   int8_t          sa8                   
239    reshape_149_const                  11520/11520     weights/weights           const int8_t    sa8                   
240    conv2d_1_weights                   216/216         weights/weights           const int8_t    ss8/ch(8)             
241    conv2d_23_scratch0                 1792/1792       activations/**default**   int8_t          s8                    
242    conv2d_1_bias                      8/32            weights/weights           const int32_t   ss32/ch(8)            
243    conv2d_23_scratch1                 18432/18432     activations/**default**   int8_t          sa8                   
244    conv2d_2_weights                   72/72           weights/weights           const int8_t    ss8/ch(8)             
245    conv2d_24_scratch0                 4737/4737       activations/**default**   int8_t          s8                    
246    conv2d_2_bias                      8/32            weights/weights           const int32_t   ss32/ch(8)            
247    conv2d_24_scratch1                 18432/18432     activations/**default**   int8_t          sa8                   
248    conv2d_3_weights                   128/128         weights/weights           const int8_t    ss8/ch(16)            
249    conv2d_25_scratch0                 1792/1792       activations/**default**   int8_t          s8                    
250    conv2d_3_bias                      16/64           weights/weights           const int32_t   ss32/ch(16)           
251    conv2d_25_scratch1                 18432/18432     activations/**default**   int8_t          sa8                   
252    conv2d_5_weights                   144/144         weights/weights           const int8_t    ss8/ch(16)            
253    conv2d_26_scratch0                 4737/4737       activations/**default**   int8_t          s8                    
254    conv2d_5_bias                      16/64           weights/weights           const int32_t   ss32/ch(16)           
255    conv2d_26_scratch1                 18432/18432     activations/**default**   int8_t          sa8                   
256    conv2d_6_weights                   512/512         weights/weights           const int8_t    ss8/ch(32)            
257    conv2d_27_scratch0                 1792/1792       activations/**default**   int8_t          s8                    
258    conv2d_6_bias                      32/128          weights/weights           const int32_t   ss32/ch(32)           
259    conv2d_27_scratch1                 18432/18432     activations/**default**   int8_t          sa8                   
260    conv2d_7_weights                   288/288         weights/weights           const int8_t    ss8/ch(32)            
261    conv2d_30_scratch0                 4737/4737       activations/**default**   int8_t          s8                    
262    conv2d_7_bias                      32/128          weights/weights           const int32_t   ss32/ch(32)           
263    conv2d_30_scratch1                 4608/4608       activations/**default**   int8_t          sa8                   
264    conv2d_8_weights                   1024/1024       weights/weights           const int8_t    ss8/ch(32)            
265    conv2d_31_scratch0                 3072/3072       activations/**default**   int8_t          s8                    
266    conv2d_8_bias                      32/128          weights/weights           const int32_t   ss32/ch(32)           
267    conv2d_10_weights                  288/288         weights/weights           const int8_t    ss8/ch(32)            
268    conv2d_32_scratch0                 9473/9473       activations/**default**   int8_t          s8                    
269    conv2d_10_bias                     32/128          weights/weights           const int32_t   ss32/ch(32)           
---------------------------------------------------------------------------------------------------------------------------

C-Layers (95)
-----------------------------------------------------------------------------------------------------------------------------------------
c_id   name (*_layer)              id    layer_type          macc      rom     tensors                               shape (array id)   
-----------------------------------------------------------------------------------------------------------------------------------------
0      concat_150                  150   concat              0         15320   I: reshape_149_const                  (1,2880,1,4) (239) 
                                                                               I: reshape_124_const                  (1,720,1,4) (236)  
                                                                               I: reshape_104_const                  (1,180,1,4) (235)  
                                                                               I: reshape_84_const                   (1,45,1,4) (232)   
                                                                               I: reshape_63_const                   (1,5,1,4) (231)    
                                                                               O: concat_150_output                  (1,3830,1,4) (63)  
-----------------------------------------------------------------------------------------------------------------------------------------
1      conversion_151              151   converter           30640     0       I: concat_150_output                  (1,3830,1,4) (63)  
                                                                               O: conversion_151_output              (1,3830,1,4) (64)  
-----------------------------------------------------------------------------------------------------------------------------------------
2      conversion_0                0     converter           221184    0       I: serving_default_input_10_output    (1,192,192,3) (66) 
                                                                               O: conversion_0_output                (1,192,192,3) (67) 
-----------------------------------------------------------------------------------------------------------------------------------------
3      conv2d_1                    1     optimized_conv2d    1990664   248     I: conversion_0_output                (1,192,192,3) (67) 
                                                                               S: conv2d_1_scratch0                                     
                                                                               S: conv2d_1_scratch1                                     
                                                                               W: conv2d_1_weights                   (3,8,3,3) (240)    
                                                                               W: conv2d_1_bias                      (1,1,1,8) (242)    
                                                                               O: conv2d_1_output                    (1,96,96,8) (69)   
-----------------------------------------------------------------------------------------------------------------------------------------
4      conv2d_2_pad_before         2     pad                 0         0       I: conv2d_1_output                    (1,96,96,8) (69)   
                                                                               O: conv2d_2_pad_before_output         (1,98,98,8) (70)   
-----------------------------------------------------------------------------------------------------------------------------------------
5      conv2d_2                    2     conv2d              663560    104     I: conv2d_2_pad_before_output         (1,98,98,8) (70)   
                                                                               S: conv2d_2_scratch0                                     
                                                                               S: conv2d_2_scratch1                                     
                                                                               W: conv2d_2_weights                   (8,1,3,3) (244)    
                                                                               W: conv2d_2_bias                      (1,1,1,8) (246)    
                                                                               O: conv2d_2_output                    (1,96,96,8) (72)   
-----------------------------------------------------------------------------------------------------------------------------------------
6      conv2d_3                    3     conv2d              1179664   192     I: conv2d_2_output                    (1,96,96,8) (72)   
                                                                               S: conv2d_3_scratch0                                     
                                                                               S: conv2d_3_scratch1                                     
                                                                               W: conv2d_3_weights                   (8,16,1,1) (248)   
                                                                               W: conv2d_3_bias                      (1,1,1,16) (250)   
                                                                               O: conv2d_3_output                    (1,96,96,16) (73)  
-----------------------------------------------------------------------------------------------------------------------------------------
7      conv2d_5_pad_before         4     pad                 0         0       I: conv2d_3_output                    (1,96,96,16) (73)  
                                                                               O: conv2d_5_pad_before_output         (1,97,97,16) (75)  
-----------------------------------------------------------------------------------------------------------------------------------------
8      conv2d_5                    5     conv2d              331792    208     I: conv2d_5_pad_before_output         (1,97,97,16) (75)  
                                                                               S: conv2d_5_scratch0                                     
                                                                               S: conv2d_5_scratch1                                     
                                                                               W: conv2d_5_weights                   (16,1,3,3) (252)   
                                                                               W: conv2d_5_bias                      (1,1,1,16) (254)   
                                                                               O: conv2d_5_output                    (1,48,48,16) (76)  
-----------------------------------------------------------------------------------------------------------------------------------------
9      conv2d_6                    6     conv2d              1179680   640     I: conv2d_5_output                    (1,48,48,16) (76)  
                                                                               S: conv2d_6_scratch0                                     
                                                                               S: conv2d_6_scratch1                                     
                                                                               W: conv2d_6_weights                   (16,32,1,1) (256)  
                                                                               W: conv2d_6_bias                      (1,1,1,32) (258)   
                                                                               O: conv2d_6_output                    (1,48,48,32) (78)  
-----------------------------------------------------------------------------------------------------------------------------------------
10     conv2d_7_pad_before         7     pad                 0         0       I: conv2d_6_output                    (1,48,48,32) (78)  
                                                                               O: conv2d_7_pad_before_output         (1,50,50,32) (79)  
-----------------------------------------------------------------------------------------------------------------------------------------
11     conv2d_7                    7     conv2d              663584    416     I: conv2d_7_pad_before_output         (1,50,50,32) (79)  
                                                                               S: conv2d_7_scratch0                                     
                                                                               S: conv2d_7_scratch1                                     
                                                                               W: conv2d_7_weights                   (32,1,3,3) (260)   
                                                                               W: conv2d_7_bias                      (1,1,1,32) (262)   
                                                                               O: conv2d_7_output                    (1,48,48,32) (81)  
-----------------------------------------------------------------------------------------------------------------------------------------
12     conv2d_8                    8     conv2d              2359328   1152    I: conv2d_7_output                    (1,48,48,32) (81)  
                                                                               S: conv2d_8_scratch0                                     
                                                                               S: conv2d_8_scratch1                                     
                                                                               W: conv2d_8_weights                   (32,32,1,1) (264)  
                                                                               W: conv2d_8_bias                      (1,1,1,32) (266)   
                                                                               O: conv2d_8_output                    (1,48,48,32) (82)  
-----------------------------------------------------------------------------------------------------------------------------------------
13     conv2d_10_pad_before        9     pad                 0         0       I: conv2d_8_output                    (1,48,48,32) (82)  
                                                                               O: conv2d_10_pad_before_output        (1,49,49,32) (84)  
-----------------------------------------------------------------------------------------------------------------------------------------
14     conv2d_10                   10    conv2d              165920    416     I: conv2d_10_pad_before_output        (1,49,49,32) (84)  
                                                                               S: conv2d_10_scratch0                                    
                                                                               S: conv2d_10_scratch1                                    
                                                                               W: conv2d_10_weights                  (32,1,3,3) (267)   
                                                                               W: conv2d_10_bias                     (1,1,1,32) (269)   
                                                                               O: conv2d_10_output                   (1,24,24,32) (85)  
-----------------------------------------------------------------------------------------------------------------------------------------
15     conv2d_11                   11    conv2d              1179712   2304    I: conv2d_10_output                   (1,24,24,32) (85)  
                                                                               S: conv2d_11_scratch0                                    
                                                                               S: conv2d_11_scratch1                                    
                                                                               W: conv2d_11_weights                  (32,64,1,1) (0)    
                                                                               W: conv2d_11_bias                     (1,1,1,64) (2)     
                                                                               O: conv2d_11_output                   (1,24,24,64) (87)  
-----------------------------------------------------------------------------------------------------------------------------------------
16     conv2d_12_pad_before        12    pad                 0         0       I: conv2d_11_output                   (1,24,24,64) (87)  
                                                                               O: conv2d_12_pad_before_output        (1,26,26,64) (88)  
-----------------------------------------------------------------------------------------------------------------------------------------
17     conv2d_12                   12    conv2d              331840    832     I: conv2d_12_pad_before_output        (1,26,26,64) (88)  
                                                                               S: conv2d_12_scratch0                                    
                                                                               S: conv2d_12_scratch1                                    
                                                                               W: conv2d_12_weights                  (64,1,3,3) (4)     
                                                                               W: conv2d_12_bias                     (1,1,1,64) (6)     
                                                                               O: conv2d_12_output                   (1,24,24,64) (90)  
-----------------------------------------------------------------------------------------------------------------------------------------
18     conv2d_13                   13    conv2d              2359360   4352    I: conv2d_12_output                   (1,24,24,64) (90)  
                                                                               S: conv2d_13_scratch0                                    
                                                                               S: conv2d_13_scratch1                                    
                                                                               W: conv2d_13_weights                  (64,64,1,1) (8)    
                                                                               W: conv2d_13_bias                     (1,1,1,64) (11)    
                                                                               O: conv2d_13_output                   (1,24,24,64) (91)  
-----------------------------------------------------------------------------------------------------------------------------------------
19     conv2d_16_pad_before        15    pad                 0         0       I: conv2d_13_output                   (1,24,24,64) (91)  
                                                                               O: conv2d_16_pad_before_output        (1,25,25,64) (93)  
-----------------------------------------------------------------------------------------------------------------------------------------
20     conv2d_16                   16    conv2d              83008     832     I: conv2d_16_pad_before_output        (1,25,25,64) (93)  
                                                                               S: conv2d_16_scratch0                                    
                                                                               S: conv2d_16_scratch1                                    
                                                                               W: conv2d_16_weights                  (64,1,3,3) (13)    
                                                                               W: conv2d_16_bias                     (1,1,1,64) (15)    
                                                                               O: conv2d_16_output                   (1,12,12,64) (94)  
-----------------------------------------------------------------------------------------------------------------------------------------
21     conv2d_17                   17    conv2d              1179776   8704    I: conv2d_16_output                   (1,12,12,64) (94)  
                                                                               S: conv2d_17_scratch0                                    
                                                                               S: conv2d_17_scratch1                                    
                                                                               W: conv2d_17_weights                  (64,128,1,1) (17)  
                                                                               W: conv2d_17_bias                     (1,1,1,128) (19)   
                                                                               O: conv2d_17_output                   (1,12,12,128) (96) 
-----------------------------------------------------------------------------------------------------------------------------------------
22     conv2d_18_pad_before        18    pad                 0         0       I: conv2d_17_output                   (1,12,12,128) (96) 
                                                                               O: conv2d_18_pad_before_output        (1,14,14,128) (97) 
-----------------------------------------------------------------------------------------------------------------------------------------
23     conv2d_18                   18    conv2d              166016    1664    I: conv2d_18_pad_before_output        (1,14,14,128) (97) 
                                                                               S: conv2d_18_scratch0                                    
                                                                               S: conv2d_18_scratch1                                    
                                                                               W: conv2d_18_weights                  (128,1,3,3) (21)   
                                                                               W: conv2d_18_bias                     (1,1,1,128) (23)   
                                                                               O: conv2d_18_output                   (1,12,12,128) (99) 
-----------------------------------------------------------------------------------------------------------------------------------------
24     conv2d_19                   19    conv2d              2359424   16896   I: conv2d_18_output                   (1,12,12,128) (99) 
                                                                               S: conv2d_19_scratch0                                    
                                                                               S: conv2d_19_scratch1                                    
                                                                               W: conv2d_19_weights                  (128,128,1,1) (25) 
                                                                               W: conv2d_19_bias                     (1,1,1,128) (27)   
                                                                               O: conv2d_19_output                   (1,12,12,128) (100)
-----------------------------------------------------------------------------------------------------------------------------------------
25     conv2d_20_pad_before        20    pad                 0         0       I: conv2d_19_output                   (1,12,12,128) (100)
                                                                               O: conv2d_20_pad_before_output        (1,14,14,128) (102)
-----------------------------------------------------------------------------------------------------------------------------------------
26     conv2d_20                   20    conv2d              166016    1664    I: conv2d_20_pad_before_output        (1,14,14,128) (102)
                                                                               S: conv2d_20_scratch0                                    
                                                                               S: conv2d_20_scratch1                                    
                                                                               W: conv2d_20_weights                  (128,1,3,3) (28)   
                                                                               W: conv2d_20_bias                     (1,1,1,128) (31)   
                                                                               O: conv2d_20_output                   (1,12,12,128) (103)
-----------------------------------------------------------------------------------------------------------------------------------------
27     conv2d_21                   21    conv2d              2359424   16896   I: conv2d_20_output                   (1,12,12,128) (103)
                                                                               S: conv2d_21_scratch0                                    
                                                                               S: conv2d_21_scratch1                                    
                                                                               W: conv2d_21_weights                  (128,128,1,1) (33) 
                                                                               W: conv2d_21_bias                     (1,1,1,128) (35)   
                                                                               O: conv2d_21_output                   (1,12,12,128) (105)
-----------------------------------------------------------------------------------------------------------------------------------------
28     conv2d_22_pad_before        22    pad                 0         0       I: conv2d_21_output                   (1,12,12,128) (105)
                                                                               O: conv2d_22_pad_before_output        (1,14,14,128) (106)
-----------------------------------------------------------------------------------------------------------------------------------------
29     conv2d_22                   22    conv2d              166016    1664    I: conv2d_22_pad_before_output        (1,14,14,128) (106)
                                                                               S: conv2d_22_scratch0                                    
                                                                               S: conv2d_22_scratch1                                    
                                                                               W: conv2d_22_weights                  (128,1,3,3) (37)   
                                                                               W: conv2d_22_bias                     (1,1,1,128) (38)   
                                                                               O: conv2d_22_output                   (1,12,12,128) (108)
-----------------------------------------------------------------------------------------------------------------------------------------
30     conv2d_23                   23    conv2d              2359424   16896   I: conv2d_22_output                   (1,12,12,128) (108)
                                                                               S: conv2d_23_scratch0                                    
                                                                               S: conv2d_23_scratch1                                    
                                                                               W: conv2d_23_weights                  (128,128,1,1) (40) 
                                                                               W: conv2d_23_bias                     (1,1,1,128) (42)   
                                                                               O: conv2d_23_output                   (1,12,12,128) (109)
-----------------------------------------------------------------------------------------------------------------------------------------
31     conv2d_24_pad_before        24    pad                 0         0       I: conv2d_23_output                   (1,12,12,128) (109)
                                                                               O: conv2d_24_pad_before_output        (1,14,14,128) (111)
-----------------------------------------------------------------------------------------------------------------------------------------
32     conv2d_24                   24    conv2d              166016    1664    I: conv2d_24_pad_before_output        (1,14,14,128) (111)
                                                                               S: conv2d_24_scratch0                                    
                                                                               S: conv2d_24_scratch1                                    
                                                                               W: conv2d_24_weights                  (128,1,3,3) (44)   
                                                                               W: conv2d_24_bias                     (1,1,1,128) (46)   
                                                                               O: conv2d_24_output                   (1,12,12,128) (112)
-----------------------------------------------------------------------------------------------------------------------------------------
33     conv2d_25                   25    conv2d              2359424   16896   I: conv2d_24_output                   (1,12,12,128) (112)
                                                                               S: conv2d_25_scratch0                                    
                                                                               S: conv2d_25_scratch1                                    
                                                                               W: conv2d_25_weights                  (128,128,1,1) (47) 
                                                                               W: conv2d_25_bias                     (1,1,1,128) (49)   
                                                                               O: conv2d_25_output                   (1,12,12,128) (114)
-----------------------------------------------------------------------------------------------------------------------------------------
34     conv2d_26_pad_before        26    pad                 0         0       I: conv2d_25_output                   (1,12,12,128) (114)
                                                                               O: conv2d_26_pad_before_output        (1,14,14,128) (115)
-----------------------------------------------------------------------------------------------------------------------------------------
35     conv2d_26                   26    conv2d              166016    1664    I: conv2d_26_pad_before_output        (1,14,14,128) (115)
                                                                               S: conv2d_26_scratch0                                    
                                                                               S: conv2d_26_scratch1                                    
                                                                               W: conv2d_26_weights                  (128,1,3,3) (51)   
                                                                               W: conv2d_26_bias                     (1,1,1,128) (53)   
                                                                               O: conv2d_26_output                   (1,12,12,128) (117)
-----------------------------------------------------------------------------------------------------------------------------------------
36     conv2d_27                   27    conv2d              2359424   16896   I: conv2d_26_output                   (1,12,12,128) (117)
                                                                               S: conv2d_27_scratch0                                    
                                                                               S: conv2d_27_scratch1                                    
                                                                               W: conv2d_27_weights                  (128,128,1,1) (55) 
                                                                               W: conv2d_27_bias                     (1,1,1,128) (56)   
                                                                               O: conv2d_27_output                   (1,12,12,128) (118)
-----------------------------------------------------------------------------------------------------------------------------------------
37     conv2d_30_pad_before        29    pad                 0         0       I: conv2d_27_output                   (1,12,12,128) (118)
                                                                               O: conv2d_30_pad_before_output        (1,13,13,128) (120)
-----------------------------------------------------------------------------------------------------------------------------------------
38     conv2d_30                   30    conv2d              41600     1664    I: conv2d_30_pad_before_output        (1,13,13,128) (120)
                                                                               S: conv2d_30_scratch0                                    
                                                                               S: conv2d_30_scratch1                                    
                                                                               W: conv2d_30_weights                  (128,1,3,3) (57)   
                                                                               W: conv2d_30_bias                     (1,1,1,128) (58)   
                                                                               O: conv2d_30_output                   (1,6,6,128) (121)  
-----------------------------------------------------------------------------------------------------------------------------------------
39     conv2d_31                   31    conv2d              1179904   33792   I: conv2d_30_output                   (1,6,6,128) (121)  
                                                                               S: conv2d_31_scratch0                                    
                                                                               S: conv2d_31_scratch1                                    
                                                                               W: conv2d_31_weights                  (128,256,1,1) (59) 
                                                                               W: conv2d_31_bias                     (1,1,1,256) (60)   
                                                                               O: conv2d_31_output                   (1,6,6,256) (123)  
-----------------------------------------------------------------------------------------------------------------------------------------
40     conv2d_32_pad_before        32    pad                 0         0       I: conv2d_31_output                   (1,6,6,256) (123)  
                                                                               O: conv2d_32_pad_before_output        (1,8,8,256) (124)  
-----------------------------------------------------------------------------------------------------------------------------------------
41     conv2d_32                   32    conv2d              83200     3328    I: conv2d_32_pad_before_output        (1,8,8,256) (124)  
                                                                               S: conv2d_32_scratch0                                    
                                                                               S: conv2d_32_scratch1                                    
                                                                               W: conv2d_32_weights                  (256,1,3,3) (61)   
                                                                               W: conv2d_32_bias                     (1,1,1,256) (62)   
                                                                               O: conv2d_32_output                   (1,6,6,256) (126)  
-----------------------------------------------------------------------------------------------------------------------------------------
42     conv2d_33                   33    conv2d              2359552   66560   I: conv2d_32_output                   (1,6,6,256) (126)  
                                                                               S: conv2d_33_scratch0                                    
                                                                               S: conv2d_33_scratch1                                    
                                                                               W: conv2d_33_weights                  (256,256,1,1) (65) 
                                                                               W: conv2d_33_bias                     (1,1,1,256) (68)   
                                                                               O: conv2d_33_output                   (1,6,6,256) (127)  
-----------------------------------------------------------------------------------------------------------------------------------------
43     conv2d_35_pad_before        35    pad                 0         0       I: conv2d_33_output                   (1,6,6,256) (127)  
                                                                               O: conv2d_35_pad_before_output        (1,8,8,256) (129)  
-----------------------------------------------------------------------------------------------------------------------------------------
44     conv2d_35                   35    conv2d              20992     3328    I: conv2d_35_pad_before_output        (1,8,8,256) (129)  
                                                                               S: conv2d_35_scratch0                                    
                                                                               S: conv2d_35_scratch1                                    
                                                                               W: conv2d_35_weights                  (256,1,3,3) (71)   
                                                                               W: conv2d_35_bias                     (1,1,1,256) (74)   
                                                                               O: conv2d_35_output                   (1,3,3,256) (130)  
-----------------------------------------------------------------------------------------------------------------------------------------
45     conv2d_36                   36    conv2d              590080    66560   I: conv2d_35_output                   (1,3,3,256) (130)  
                                                                               S: conv2d_36_scratch0                                    
                                                                               S: conv2d_36_scratch1                                    
                                                                               W: conv2d_36_weights                  (256,256,1,1) (77) 
                                                                               W: conv2d_36_bias                     (1,1,1,256) (80)   
                                                                               O: conv2d_36_output                   (1,3,3,256) (132)  
-----------------------------------------------------------------------------------------------------------------------------------------
46     conv2d_37_pad_before        37    pad                 0         0       I: conv2d_36_output                   (1,3,3,256) (132)  
                                                                               O: conv2d_37_pad_before_output        (1,5,5,256) (133)  
-----------------------------------------------------------------------------------------------------------------------------------------
47     conv2d_37                   37    conv2d              20992     3328    I: conv2d_37_pad_before_output        (1,5,5,256) (133)  
                                                                               S: conv2d_37_scratch0                                    
                                                                               S: conv2d_37_scratch1                                    
                                                                               W: conv2d_37_weights                  (256,1,3,3) (83)   
                                                                               W: conv2d_37_bias                     (1,1,1,256) (86)   
                                                                               O: conv2d_37_output                   (1,3,3,256) (135)  
-----------------------------------------------------------------------------------------------------------------------------------------
48     conv2d_38                   38    conv2d              590080    66560   I: conv2d_37_output                   (1,3,3,256) (135)  
                                                                               S: conv2d_38_scratch0                                    
                                                                               S: conv2d_38_scratch1                                    
                                                                               W: conv2d_38_weights                  (256,256,1,1) (89) 
                                                                               W: conv2d_38_bias                     (1,1,1,256) (92)   
                                                                               O: conv2d_38_output                   (1,3,3,256) (136)  
-----------------------------------------------------------------------------------------------------------------------------------------
49     pool_40                     40    pool                2304      0       I: conv2d_38_output                   (1,3,3,256) (136)  
                                                                               O: pool_40_output                     (1,1,1,256) (138)  
-----------------------------------------------------------------------------------------------------------------------------------------
50     conv2d_45                   45    conv2d              8224      8320    I: pool_40_output                     (1,1,1,256) (138)  
                                                                               S: conv2d_45_scratch0                                    
                                                                               W: conv2d_45_weights                  (256,32,1,1) (95)  
                                                                               W: conv2d_45_bias                     (1,1,1,32) (98)    
                                                                               O: conv2d_45_output                   (1,1,1,32) (139)   
-----------------------------------------------------------------------------------------------------------------------------------------
51     conv2d_46_pad_before        46    pad                 0         0       I: conv2d_45_output                   (1,1,1,32) (139)   
                                                                               O: conv2d_46_pad_before_output        (1,3,3,32) (141)   
-----------------------------------------------------------------------------------------------------------------------------------------
52     conv2d_46                   46    conv2d              2890      2920    I: conv2d_46_pad_before_output        (1,3,3,32) (141)   
                                                                               S: conv2d_46_scratch0                                    
                                                                               W: conv2d_46_weights                  (32,10,3,3) (101)  
                                                                               W: conv2d_46_bias                     (1,1,1,10) (104)   
                                                                               O: conv2d_46_output                   (1,1,1,10) (142)   
-----------------------------------------------------------------------------------------------------------------------------------------
53     conv2d_51_pad_before        51    pad                 0         0       I: conv2d_45_output                   (1,1,1,32) (139)   
                                                                               O: conv2d_51_pad_before_output        (1,3,3,32) (144)   
-----------------------------------------------------------------------------------------------------------------------------------------
54     conv2d_51                   51    conv2d              5780      5840    I: conv2d_51_pad_before_output        (1,3,3,32) (144)   
                                                                               S: conv2d_51_scratch0                                    
                                                                               W: conv2d_51_weights                  (32,20,3,3) (107)  
                                                                               W: conv2d_51_bias                     (1,1,1,20) (110)   
                                                                               O: conv2d_51_output                   (1,1,1,20) (145)   
-----------------------------------------------------------------------------------------------------------------------------------------
55     tile_64                     64    tile                0         0       I: conv2d_45_output                   (1,1,1,32) (139)   
                                                                               O: tile_64_output                     (1,2,2,32) (147)   
-----------------------------------------------------------------------------------------------------------------------------------------
56     pad_65                      65    pad                 0         0       I: tile_64_output                     (1,2,2,32) (147)   
                                                                               O: pad_65_output                      (1,3,3,32) (148)   
-----------------------------------------------------------------------------------------------------------------------------------------
57     conv2d_39                   39    conv2d              73760     8320    I: conv2d_38_output                   (1,3,3,256) (136)  
                                                                               S: conv2d_39_scratch0                                    
                                                                               W: conv2d_39_weights                  (256,32,1,1) (113) 
                                                                               W: conv2d_39_bias                     (1,1,1,32) (116)   
                                                                               O: conv2d_39_output                   (1,3,3,32) (150)   
-----------------------------------------------------------------------------------------------------------------------------------------
58     eltwise_66                  66    eltwise_integer     288       0       I: conv2d_39_output                   (1,3,3,32) (150)   
                                                                               I: pad_65_output                      (1,3,3,32) (148)   
                                                                               O: eltwise_66_output                  (1,3,3,32) (151)   
-----------------------------------------------------------------------------------------------------------------------------------------
59     eltwise_66_0_conversion     66    converter           576       0       I: eltwise_66_output                  (1,3,3,32) (151)   
                                                                               O: eltwise_66_0_conversion_output     (1,3,3,32) (153)   
-----------------------------------------------------------------------------------------------------------------------------------------
60     upsample_85                 85    upsample            4608      0       I: eltwise_66_0_conversion_output     (1,3,3,32) (153)   
                                                                               O: upsample_85_output                 (1,6,6,32) (154)   
-----------------------------------------------------------------------------------------------------------------------------------------
61     upsample_85_0_conversion    85    converter           2304      0       I: upsample_85_output                 (1,6,6,32) (154)   
                                                                               O: upsample_85_0_conversion_output    (1,6,6,32) (156)   
-----------------------------------------------------------------------------------------------------------------------------------------
62     conv2d_67_pad_before        67    pad                 0         0       I: eltwise_66_output                  (1,3,3,32) (151)   
                                                                               O: conv2d_67_pad_before_output        (1,5,5,32) (157)   
-----------------------------------------------------------------------------------------------------------------------------------------
63     conv2d_67                   67    conv2d              51860     5840    I: conv2d_67_pad_before_output        (1,5,5,32) (157)   
                                                                               S: conv2d_67_scratch0                                    
                                                                               W: conv2d_67_weights                  (32,20,3,3) (119)  
                                                                               W: conv2d_67_bias                     (1,1,1,20) (122)   
                                                                               O: conv2d_67_output                   (1,3,3,20) (159)   
-----------------------------------------------------------------------------------------------------------------------------------------
64     conv2d_72_pad_before        72    pad                 0         0       I: eltwise_66_output                  (1,3,3,32) (151)   
                                                                               O: conv2d_72_pad_before_output        (1,5,5,32) (160)   
-----------------------------------------------------------------------------------------------------------------------------------------
65     conv2d_72                   72    conv2d              25930     2920    I: conv2d_72_pad_before_output        (1,5,5,32) (160)   
                                                                               S: conv2d_72_scratch0                                    
                                                                               W: conv2d_72_weights                  (32,10,3,3) (125)  
                                                                               W: conv2d_72_bias                     (1,1,1,10) (128)   
                                                                               O: conv2d_72_output                   (1,3,3,10) (162)   
-----------------------------------------------------------------------------------------------------------------------------------------
66     conv2d_34                   34    conv2d              294944    8320    I: conv2d_33_output                   (1,6,6,256) (127)  
                                                                               S: conv2d_34_scratch0                                    
                                                                               W: conv2d_34_weights                  (256,32,1,1) (131) 
                                                                               W: conv2d_34_bias                     (1,1,1,32) (134)   
                                                                               O: conv2d_34_output                   (1,6,6,32) (163)   
-----------------------------------------------------------------------------------------------------------------------------------------
67     eltwise_86                  86    eltwise_integer     1152      0       I: conv2d_34_output                   (1,6,6,32) (163)   
                                                                               I: upsample_85_0_conversion_output    (1,6,6,32) (156)   
                                                                               O: eltwise_86_output                  (1,6,6,32) (165)   
-----------------------------------------------------------------------------------------------------------------------------------------
68     eltwise_86_0_conversion     86    converter           2304      0       I: eltwise_86_output                  (1,6,6,32) (165)   
                                                                               O: eltwise_86_0_conversion_output     (1,6,6,32) (166)   
-----------------------------------------------------------------------------------------------------------------------------------------
69     upsample_105                105   upsample            18432     0       I: eltwise_86_0_conversion_output     (1,6,6,32) (166)   
                                                                               O: upsample_105_output                (1,12,12,32) (168) 
-----------------------------------------------------------------------------------------------------------------------------------------
70     upsample_105_0_conversion   105   converter           9216      0       I: upsample_105_output                (1,12,12,32) (168) 
                                                                               O: upsample_105_0_conversion_output   (1,12,12,32) (169) 
-----------------------------------------------------------------------------------------------------------------------------------------
71     conv2d_87_pad_before        87    pad                 0         0       I: eltwise_86_output                  (1,6,6,32) (165)   
                                                                               O: conv2d_87_pad_before_output        (1,8,8,32) (171)   
-----------------------------------------------------------------------------------------------------------------------------------------
72     conv2d_87                   87    conv2d              103690    2920    I: conv2d_87_pad_before_output        (1,8,8,32) (171)   
                                                                               S: conv2d_87_scratch0                                    
                                                                               W: conv2d_87_weights                  (32,10,3,3) (137)  
                                                                               W: conv2d_87_bias                     (1,1,1,10) (140)   
                                                                               O: conv2d_87_output                   (1,6,6,10) (172)   
-----------------------------------------------------------------------------------------------------------------------------------------
73     conv2d_92_pad_before        92    pad                 0         0       I: eltwise_86_output                  (1,6,6,32) (165)   
                                                                               O: conv2d_92_pad_before_output        (1,8,8,32) (174)   
-----------------------------------------------------------------------------------------------------------------------------------------
74     conv2d_92                   92    conv2d              207380    5840    I: conv2d_92_pad_before_output        (1,8,8,32) (174)   
                                                                               S: conv2d_92_scratch0                                    
                                                                               W: conv2d_92_weights                  (32,20,3,3) (143)  
                                                                               W: conv2d_92_bias                     (1,1,1,20) (146)   
                                                                               O: conv2d_92_output                   (1,6,6,20) (175)   
-----------------------------------------------------------------------------------------------------------------------------------------
75     conv2d_28                   28    conv2d              589856    4224    I: conv2d_27_output                   (1,12,12,128) (118)
                                                                               S: conv2d_28_scratch0                                    
                                                                               W: conv2d_28_weights                  (128,32,1,1) (149) 
                                                                               W: conv2d_28_bias                     (1,1,1,32) (152)   
                                                                               O: conv2d_28_output                   (1,12,12,32) (177) 
-----------------------------------------------------------------------------------------------------------------------------------------
76     eltwise_106                 106   eltwise_integer     4608      0       I: conv2d_28_output                   (1,12,12,32) (177) 
                                                                               I: upsample_105_0_conversion_output   (1,12,12,32) (169) 
                                                                               O: eltwise_106_output                 (1,12,12,32) (178) 
-----------------------------------------------------------------------------------------------------------------------------------------
77     eltwise_106_0_conversion    106   converter           9216      0       I: eltwise_106_output                 (1,12,12,32) (178) 
                                                                               O: eltwise_106_0_conversion_output    (1,12,12,32) (180) 
-----------------------------------------------------------------------------------------------------------------------------------------
78     upsample_125                125   upsample            73728     0       I: eltwise_106_0_conversion_output    (1,12,12,32) (180) 
                                                                               O: upsample_125_output                (1,24,24,32) (181) 
-----------------------------------------------------------------------------------------------------------------------------------------
79     upsample_125_0_conversion   125   converter           36864     0       I: upsample_125_output                (1,24,24,32) (181) 
                                                                               O: upsample_125_0_conversion_output   (1,24,24,32) (183) 
-----------------------------------------------------------------------------------------------------------------------------------------
80     conv2d_107_pad_before       107   pad                 0         0       I: eltwise_106_output                 (1,12,12,32) (178) 
                                                                               O: conv2d_107_pad_before_output       (1,14,14,32) (184) 
-----------------------------------------------------------------------------------------------------------------------------------------
81     conv2d_107                  107   conv2d              414730    2920    I: conv2d_107_pad_before_output       (1,14,14,32) (184) 
                                                                               S: conv2d_107_scratch0                                   
                                                                               W: conv2d_107_weights                 (32,10,3,3) (155)  
                                                                               W: conv2d_107_bias                    (1,1,1,10) (158)   
                                                                               O: conv2d_107_output                  (1,12,12,10) (186) 
-----------------------------------------------------------------------------------------------------------------------------------------
82     conv2d_112_pad_before       112   pad                 0         0       I: eltwise_106_output                 (1,12,12,32) (178) 
                                                                               O: conv2d_112_pad_before_output       (1,14,14,32) (187) 
-----------------------------------------------------------------------------------------------------------------------------------------
83     conv2d_112                  112   conv2d              829460    5840    I: conv2d_112_pad_before_output       (1,14,14,32) (187) 
                                                                               S: conv2d_112_scratch0                                   
                                                                               W: conv2d_112_weights                 (32,20,3,3) (161)  
                                                                               W: conv2d_112_bias                    (1,1,1,20) (164)   
                                                                               O: conv2d_112_output                  (1,12,12,20) (189) 
-----------------------------------------------------------------------------------------------------------------------------------------
84     conv2d_14                   14    conv2d              1179680   2176    I: conv2d_13_output                   (1,24,24,64) (91)  
                                                                               S: conv2d_14_scratch0                                    
                                                                               W: conv2d_14_weights                  (64,32,1,1) (167)  
                                                                               W: conv2d_14_bias                     (1,1,1,32) (170)   
                                                                               O: conv2d_14_output                   (1,24,24,32) (190) 
-----------------------------------------------------------------------------------------------------------------------------------------
85     eltwise_126                 126   eltwise_integer     18432     0       I: conv2d_14_output                   (1,24,24,32) (190) 
                                                                               I: upsample_125_0_conversion_output   (1,24,24,32) (183) 
                                                                               O: eltwise_126_output                 (1,24,24,32) (192) 
-----------------------------------------------------------------------------------------------------------------------------------------
86     conv2d_127_pad_before       127   pad                 0         0       I: eltwise_126_output                 (1,24,24,32) (192) 
                                                                               O: conv2d_127_pad_before_output       (1,26,26,32) (193) 
-----------------------------------------------------------------------------------------------------------------------------------------
87     conv2d_127                  127   conv2d              1658890   2920    I: conv2d_127_pad_before_output       (1,26,26,32) (193) 
                                                                               S: conv2d_127_scratch0                                   
                                                                               W: conv2d_127_weights                 (32,10,3,3) (173)  
                                                                               W: conv2d_127_bias                    (1,1,1,10) (176)   
                                                                               O: conv2d_127_output                  (1,24,24,10) (195) 
-----------------------------------------------------------------------------------------------------------------------------------------
88     concat_132                  132   concat              0         0       I: conv2d_127_output0                 (1,2880,1,2) (195) 
                                                                               I: conv2d_107_output0                 (1,720,1,2) (186)  
                                                                               I: conv2d_87_output0                  (1,180,1,2) (172)  
                                                                               I: conv2d_72_output0                  (1,45,1,2) (162)   
                                                                               I: conv2d_46_output0                  (1,5,1,2) (142)    
                                                                               O: concat_132_output                  (1,3830,1,2) (196) 
-----------------------------------------------------------------------------------------------------------------------------------------
89     concat_132_0_conversion     132   converter           15320     0       I: concat_132_output                  (1,3830,1,2) (196) 
                                                                               O: concat_132_0_conversion_output     (1,3830,1,2) (198) 
-----------------------------------------------------------------------------------------------------------------------------------------
90     nl_133                      133   nl                  114900    0       I: concat_132_0_conversion_output     (1,3830,1,2) (198) 
                                                                               O: nl_133_output                      (1,3830,1,2) (199) 
-----------------------------------------------------------------------------------------------------------------------------------------
91     conv2d_135_pad_before       135   pad                 0         0       I: eltwise_126_output                 (1,24,24,32) (192) 
                                                                               O: conv2d_135_pad_before_output       (1,26,26,32) (201) 
-----------------------------------------------------------------------------------------------------------------------------------------
92     conv2d_135                  135   conv2d              3317780   5840    I: conv2d_135_pad_before_output       (1,26,26,32) (201) 
                                                                               S: conv2d_135_scratch0                                   
                                                                               W: conv2d_135_weights                 (32,20,3,3) (179)  
                                                                               W: conv2d_135_bias                    (1,1,1,20) (182)   
                                                                               O: conv2d_135_output                  (1,24,24,20) (202) 
-----------------------------------------------------------------------------------------------------------------------------------------
93     concat_140                  140   concat              0         0       I: conv2d_135_output0                 (1,2880,1,4) (202) 
                                                                               I: conv2d_112_output0                 (1,720,1,4) (189)  
                                                                               I: conv2d_92_output0                  (1,180,1,4) (175)  
                                                                               I: conv2d_67_output0                  (1,45,1,4) (159)   
                                                                               I: conv2d_51_output0                  (1,5,1,4) (145)    
                                                                               O: concat_140_output                  (1,3830,1,4) (204) 
-----------------------------------------------------------------------------------------------------------------------------------------
94     conversion_141              141   converter           30640     0       I: concat_140_output                  (1,3830,1,4) (204) 
                                                                               O: conversion_141_output              (1,3830,1,4) (205) 
-----------------------------------------------------------------------------------------------------------------------------------------



Number of operations per c-layer
----------------------------------------------------------------------------------------------------------------
c_id    m_id   name (type)                             #op (type)                       #param (sparsity)      
----------------------------------------------------------------------------------------------------------------
0       150    concat_150 (concat)                                   0 (op_s8_s8)                    0 (0.0000)
1       151    conversion_151 (converter)                       30,640 (smul_s8_f32)                           
2       0      conversion_0 (converter)                        221,184 (smul_u8_s8)                            
3       1      conv2d_1 (optimized_conv2d)                   1,990,664 (smul_s8_s8)                224 (0.2455)
4       2      conv2d_2_pad_before (pad)                             0 (smul_s8_s8)                            
5       2      conv2d_2 (conv2d)                               663,560 (smul_s8_s8)                 80 (0.0000)
6       3      conv2d_3 (conv2d)                             1,179,664 (smul_s8_s8)                144 (0.2847)
7       4      conv2d_5_pad_before (pad)                             0 (smul_s8_s8)                            
8       5      conv2d_5 (conv2d)                               331,792 (smul_s8_s8)                160 (0.0125)
9       6      conv2d_6 (conv2d)                             1,179,680 (smul_s8_s8)                544 (0.2298)
10      7      conv2d_7_pad_before (pad)                             0 (smul_s8_s8)                            
11      7      conv2d_7 (conv2d)                               663,584 (smul_s8_s8)                320 (0.0062)
12      8      conv2d_8 (conv2d)                             2,359,328 (smul_s8_s8)              1,056 (0.1468)
13      9      conv2d_10_pad_before (pad)                            0 (smul_s8_s8)                            
14      10     conv2d_10 (conv2d)                              165,920 (smul_s8_s8)                320 (0.0000)
15      11     conv2d_11 (conv2d)                            1,179,712 (smul_s8_s8)              2,112 (0.0473)
16      12     conv2d_12_pad_before (pad)                            0 (smul_s8_s8)                            
17      12     conv2d_12 (conv2d)                              331,840 (smul_s8_s8)                640 (0.0125)
18      13     conv2d_13 (conv2d)                            2,359,360 (smul_s8_s8)              4,160 (0.0240)
19      15     conv2d_16_pad_before (pad)                            0 (smul_s8_s8)                            
20      16     conv2d_16 (conv2d)                               83,008 (smul_s8_s8)                640 (0.0016)
21      17     conv2d_17 (conv2d)                            1,179,776 (smul_s8_s8)              8,320 (0.0212)
22      18     conv2d_18_pad_before (pad)                            0 (smul_s8_s8)                            
23      18     conv2d_18 (conv2d)                              166,016 (smul_s8_s8)              1,280 (0.0164)
24      19     conv2d_19 (conv2d)                            2,359,424 (smul_s8_s8)             16,512 (0.0168)
25      20     conv2d_20_pad_before (pad)                            0 (smul_s8_s8)                            
26      20     conv2d_20 (conv2d)                              166,016 (smul_s8_s8)              1,280 (0.0180)
27      21     conv2d_21 (conv2d)                            2,359,424 (smul_s8_s8)             16,512 (0.0141)
28      22     conv2d_22_pad_before (pad)                            0 (smul_s8_s8)                            
29      22     conv2d_22 (conv2d)                              166,016 (smul_s8_s8)              1,280 (0.0148)
30      23     conv2d_23 (conv2d)                            2,359,424 (smul_s8_s8)             16,512 (0.0115)
31      24     conv2d_24_pad_before (pad)                            0 (smul_s8_s8)                            
32      24     conv2d_24 (conv2d)                              166,016 (smul_s8_s8)              1,280 (0.0094)
33      25     conv2d_25 (conv2d)                            2,359,424 (smul_s8_s8)             16,512 (0.0128)
34      26     conv2d_26_pad_before (pad)                            0 (smul_s8_s8)                            
35      26     conv2d_26 (conv2d)                              166,016 (smul_s8_s8)              1,280 (0.0062)
36      27     conv2d_27 (conv2d)                            2,359,424 (smul_s8_s8)             16,512 (0.0094)
37      29     conv2d_30_pad_before (pad)                            0 (smul_s8_s8)                            
38      30     conv2d_30 (conv2d)                               41,600 (smul_s8_s8)              1,280 (0.0016)
39      31     conv2d_31 (conv2d)                            1,179,904 (smul_s8_s8)             33,024 (0.0110)
40      32     conv2d_32_pad_before (pad)                            0 (smul_s8_s8)                            
41      32     conv2d_32 (conv2d)                               83,200 (smul_s8_s8)              2,560 (0.0043)
42      33     conv2d_33 (conv2d)                            2,359,552 (smul_s8_s8)             65,792 (0.0154)
43      35     conv2d_35_pad_before (pad)                            0 (smul_s8_s8)                            
44      35     conv2d_35 (conv2d)                               20,992 (smul_s8_s8)              2,560 (0.6277)
45      36     conv2d_36 (conv2d)                              590,080 (smul_s8_s8)             65,792 (0.9703)
46      37     conv2d_37_pad_before (pad)                            0 (smul_s8_s8)                            
47      37     conv2d_37 (conv2d)                               20,992 (smul_s8_s8)              2,560 (0.8230)
48      38     conv2d_38 (conv2d)                              590,080 (smul_s8_s8)             65,792 (0.9885)
49      40     pool_40 (pool)                                    2,304 (op_s8_s8)                              
50      45     conv2d_45 (conv2d)                                8,224 (smul_s8_s8)              8,224 (0.9270)
51      46     conv2d_46_pad_before (pad)                            0 (smul_s8_s8)                            
52      46     conv2d_46 (conv2d)                                2,890 (smul_s8_s8)              2,890 (0.9606)
53      51     conv2d_51_pad_before (pad)                            0 (smul_s8_s8)                            
54      51     conv2d_51 (conv2d)                                5,780 (smul_s8_s8)              5,780 (0.9574)
55      64     tile_64 (tile)                                        0 (smul_s8_s8)                            
56      65     pad_65 (pad)                                          0 (smul_s8_s8)                            
57      39     conv2d_39 (conv2d)                               73,760 (smul_s8_s8)              8,224 (0.9196)
58      66     eltwise_66 (eltwise_integer)                        288 (smul_s8_s8)                            
59      66     eltwise_66_0_conversion (converter)                 576 (smul_s8_f32)                           
60      85     upsample_85 (upsample)                            4,608 (smul_f32_f32)                          
61      85     upsample_85_0_conversion (converter)              2,304 (smul_f32_s8)                           
62      67     conv2d_67_pad_before (pad)                            0 (smul_s8_s8)                            
63      67     conv2d_67 (conv2d)                               51,860 (smul_s8_s8)              5,780 (0.3071)
64      72     conv2d_72_pad_before (pad)                            0 (smul_s8_s8)                            
65      72     conv2d_72 (conv2d)                               25,930 (smul_s8_s8)              2,890 (0.4457)
66      34     conv2d_34 (conv2d)                              294,944 (smul_s8_s8)              8,224 (0.1155)
67      86     eltwise_86 (eltwise_integer)                      1,152 (smul_s8_s8)                            
68      86     eltwise_86_0_conversion (converter)               2,304 (smul_s8_f32)                           
69      105    upsample_105 (upsample)                          18,432 (smul_f32_f32)                          
70      105    upsample_105_0_conversion (converter)             9,216 (smul_f32_s8)                           
71      87     conv2d_87_pad_before (pad)                            0 (smul_s8_s8)                            
72      87     conv2d_87 (conv2d)                              103,690 (smul_s8_s8)              2,890 (0.2651)
73      92     conv2d_92_pad_before (pad)                            0 (smul_s8_s8)                            
74      92     conv2d_92 (conv2d)                              207,380 (smul_s8_s8)              5,780 (0.2400)
75      28     conv2d_28 (conv2d)                              589,856 (smul_s8_s8)              4,128 (0.1679)
76      106    eltwise_106 (eltwise_integer)                     4,608 (smul_s8_s8)                            
77      106    eltwise_106_0_conversion (converter)              9,216 (smul_s8_f32)                           
78      125    upsample_125 (upsample)                          73,728 (smul_f32_f32)                          
79      125    upsample_125_0_conversion (converter)            36,864 (smul_f32_s8)                           
80      107    conv2d_107_pad_before (pad)                           0 (smul_s8_s8)                            
81      107    conv2d_107 (conv2d)                             414,730 (smul_s8_s8)              2,890 (0.2547)
82      112    conv2d_112_pad_before (pad)                           0 (smul_s8_s8)                            
83      112    conv2d_112 (conv2d)                             829,460 (smul_s8_s8)              5,780 (0.2417)
84      14     conv2d_14 (conv2d)                            1,179,680 (smul_s8_s8)              2,080 (0.1332)
85      126    eltwise_126 (eltwise_integer)                    18,432 (smul_s8_s8)                            
86      127    conv2d_127_pad_before (pad)                           0 (smul_s8_s8)                            
87      127    conv2d_127 (conv2d)                           1,658,890 (smul_s8_s8)              2,890 (0.2668)
88      132    concat_132 (concat)                                   0 (op_s8_s8)                              
89      132    concat_132_0_conversion (converter)              15,320 (smul_s8_f32)                           
90      133    nl_133 (nl)                                     114,900 (op_f32_f32)                            
91      135    conv2d_135_pad_before (pad)                           0 (smul_s8_s8)                            
92      135    conv2d_135 (conv2d)                           3,317,780 (smul_s8_s8)              5,780 (0.2611)
93      140    concat_140 (concat)                                   0 (op_s8_s8)                              
94      141    conversion_141 (converter)                       30,640 (smul_s8_f32)                           
----------------------------------------------------------------------------------------------------------------
total                                                       40,543,058                         421,270 (0.4058)

  Number of operation types
  ---------------------------------------------
  op_s8_s8                   2,304        0.0%
  smul_s8_f32               88,696        0.2%
  smul_u8_s8               221,184        0.5%
  smul_s8_s8            39,970,822       98.6%
  smul_f32_f32              96,768        0.2%
  smul_f32_s8               48,384        0.1%
  op_f32_f32               114,900        0.3%

Complexity report (model)
-----------------------------------------------------------------------------------------------
m_id   name                       c_macc                    c_rom                     c_id    
-----------------------------------------------------------------------------------------------
0      serving_default_input_10   |                  0.5%   |                  0.0%   [2]     
1      conv2d_1                   |||||||||          4.9%   |                  0.1%   [3]     
2      conv2d_2                   ||||               1.6%   |                  0.0%   [4, 5]  
3      conv2d_3                   ||||||             2.9%   |                  0.0%   [6]     
4      pad_4                      |                  0.0%   |                  0.0%   [7]     
5      conv2d_5                   ||                 0.8%   |                  0.0%   [8]     
6      conv2d_6                   ||||||             2.9%   |                  0.1%   [9]     
7      conv2d_7                   ||||               1.6%   |                  0.1%   [10, 11]
8      conv2d_8                   |||||||||||        5.8%   |                  0.3%   [12]    
9      pad_9                      |                  0.0%   |                  0.0%   [13]    
10     conv2d_10                  |                  0.4%   |                  0.1%   [14]    
11     conv2d_11                  ||||||             2.9%   |                  0.5%   [15]    
12     conv2d_12                  ||                 0.8%   |                  0.2%   [16, 17]
13     conv2d_13                  |||||||||||        5.8%   |                  1.0%   [18]    
14     conv2d_14                  ||||||             2.9%   |                  0.5%   [84]    
15     pad_15                     |                  0.0%   |                  0.0%   [19]    
16     conv2d_16                  |                  0.2%   |                  0.2%   [20]    
17     conv2d_17                  ||||||             2.9%   ||                 1.9%   [21]    
18     conv2d_18                  |                  0.4%   |                  0.4%   [22, 23]
19     conv2d_19                  |||||||||||        5.8%   ||||               3.8%   [24]    
20     conv2d_20                  |                  0.4%   |                  0.4%   [25, 26]
21     conv2d_21                  |||||||||||        5.8%   ||||               3.8%   [27]    
22     conv2d_22                  |                  0.4%   |                  0.4%   [28, 29]
23     conv2d_23                  |||||||||||        5.8%   ||||               3.8%   [30]    
24     conv2d_24                  |                  0.4%   |                  0.4%   [31, 32]
25     conv2d_25                  |||||||||||        5.8%   ||||               3.8%   [33]    
26     conv2d_26                  |                  0.4%   |                  0.4%   [34, 35]
27     conv2d_27                  |||||||||||        5.8%   ||||               3.8%   [36]    
28     conv2d_28                  |||                1.5%   |                  0.9%   [75]    
29     pad_29                     |                  0.0%   |                  0.0%   [37]    
30     conv2d_30                  |                  0.1%   |                  0.4%   [38]    
31     conv2d_31                  ||||||             2.9%   ||||||||           7.5%   [39]    
32     conv2d_32                  |                  0.2%   |                  0.7%   [40, 41]
33     conv2d_33                  |||||||||||        5.8%   ||||||||||||||||  14.8%   [42]    
34     conv2d_34                  ||                 0.7%   ||                 1.9%   [66]    
35     conv2d_35                  |                  0.1%   |                  0.7%   [43, 44]
36     conv2d_36                  |||                1.5%   ||||||||||||||||  14.8%   [45]    
37     conv2d_37                  |                  0.1%   |                  0.7%   [46, 47]
38     conv2d_38                  |||                1.5%   ||||||||||||||||  14.8%   [48]    
39     conv2d_39                  |                  0.2%   ||                 1.9%   [57]    
40     pool_40                    |                  0.0%   |                  0.0%   [49]    
45     conv2d_45                  |                  0.0%   ||                 1.9%   [50]    
46     conv2d_46                  |                  0.0%   |                  0.7%   [51, 52]
51     conv2d_51                  |                  0.0%   ||                 1.3%   [53, 54]
64     tile_64                    |                  0.0%   |                  0.0%   [55]    
65     pad_65                     |                  0.0%   |                  0.0%   [56]    
66     eltwise_66                 |                  0.0%   |                  0.0%   [58, 59]
67     conv2d_67                  |                  0.1%   ||                 1.3%   [62, 63]
72     conv2d_72                  |                  0.1%   |                  0.7%   [64, 65]
85     upsample_85                |                  0.0%   |                  0.0%   [60, 61]
86     eltwise_86                 |                  0.0%   |                  0.0%   [67, 68]
87     conv2d_87                  |                  0.3%   |                  0.7%   [71, 72]
92     conv2d_92                  |                  0.5%   ||                 1.3%   [73, 74]
105    upsample_105               |                  0.1%   |                  0.0%   [69, 70]
106    eltwise_106                |                  0.0%   |                  0.0%   [76, 77]
107    conv2d_107                 ||                 1.0%   |                  0.7%   [80, 81]
112    conv2d_112                 ||||               2.0%   ||                 1.3%   [82, 83]
125    upsample_125               |                  0.3%   |                  0.0%   [78, 79]
126    eltwise_126                |                  0.0%   |                  0.0%   [85]    
127    conv2d_127                 ||||||||           4.1%   |                  0.7%   [86, 87]
132    concat_132                 |                  0.0%   |                  0.0%   [88, 89]
133    nl_133                     |                  0.3%   |                  0.0%   [90]    
135    conv2d_135                 ||||||||||||||||   8.2%   ||                 1.3%   [91, 92]
140    concat_140                 |                  0.0%   |                  0.0%   [93]    
141    conversion_141             |                  0.1%   |                  0.0%   [94]    
150    concat_150                 |                  0.0%   ||||               3.4%   [0]     
151    conversion_151             |                  0.1%   |                  0.0%   [1]     
-----------------------------------------------------------------------------------------------
macc=40,543,058 weights=448,800 act=223,280 ram_io=0

Generated files (8)
-----------------------------------------------------------------------------------------------------------------------------------------------------------------------------------------------------
C:\Users\rattingu\STM32CubeIDE\workspace_1.11.0\external_model_zoo\object_detection\src\experiments_outputs\2023_12_19_15_43_37\inspector_network\workspace\generated\network_config.h
C:\Users\rattingu\STM32CubeIDE\workspace_1.11.0\external_model_zoo\object_detection\src\experiments_outputs\2023_12_19_15_43_37\inspector_network\workspace\generated\network.h
C:\Users\rattingu\STM32CubeIDE\workspace_1.11.0\external_model_zoo\object_detection\src\experiments_outputs\2023_12_19_15_43_37\inspector_network\workspace\generated\network.c
C:\Users\rattingu\STM32CubeIDE\workspace_1.11.0\external_model_zoo\object_detection\src\experiments_outputs\2023_12_19_15_43_37\inspector_network\workspace\generated\network_data_params.h
C:\Users\rattingu\STM32CubeIDE\workspace_1.11.0\external_model_zoo\object_detection\src\experiments_outputs\2023_12_19_15_43_37\inspector_network\workspace\generated\network_data_params.c
C:\Users\rattingu\STM32CubeIDE\workspace_1.11.0\external_model_zoo\object_detection\src\experiments_outputs\2023_12_19_15_43_37\inspector_network\workspace\generated\network_data.h
C:\Users\rattingu\STM32CubeIDE\workspace_1.11.0\external_model_zoo\object_detection\src\experiments_outputs\2023_12_19_15_43_37\inspector_network\workspace\generated\network_data.c
C:\Users\rattingu\STM32CubeIDE\workspace_1.11.0\external_model_zoo\object_detection\src\experiments_outputs\2023_12_19_15_43_37\inspector_network\workspace\lib\libai_network.dll
